{"class_name": "Model", "keras_version": "2.0.9", "config": {"layers": [{"class_name": "InputLayer", "config": {"dtype": "float32", "batch_input_shape": [null, 473, 473, 3], "name": "input_1", "sparse": false}, "inbound_nodes": [], "name": "input_1"}, {"class_name": "Conv2D", "config": {"kernel_constraint": null, "kernel_initializer": {"class_name": "VarianceScaling", "config": {"distribution": "uniform", "scale": 1.0, "seed": null, "mode": "fan_avg"}}, "name": "conv1_1_3x3_s2", "bias_regularizer": null, "bias_constraint": null, "activation": "linear", "trainable": true, "data_format": "channels_last", "padding": "same", "strides": [2, 2], "dilation_rate": [1, 1], "kernel_regularizer": null, "filters": 64, "bias_initializer": {"class_name": "Zeros", "config": {}}, "use_bias": false, "activity_regularizer": null, "kernel_size": [3, 3]}, "inbound_nodes": [[["input_1", 0, 0, {}]]], "name": "conv1_1_3x3_s2"}, {"class_name": "BatchNormalization", "config": {"beta_constraint": null, "gamma_initializer": {"class_name": "Ones", "config": {}}, "moving_mean_initializer": {"class_name": "Zeros", "config": {}}, "name": "conv1_1_3x3_s2_bn", "epsilon": 1e-05, "trainable": true, "moving_variance_initializer": {"class_name": "Ones", "config": {}}, "beta_initializer": {"class_name": "Zeros", "config": {}}, "scale": true, "axis": -1, "gamma_constraint": null, "gamma_regularizer": null, "beta_regularizer": null, "momentum": 0.95, "center": true}, "inbound_nodes": [[["conv1_1_3x3_s2", 0, 0, {}]]], "name": "conv1_1_3x3_s2_bn"}, {"class_name": "Activation", "config": {"activation": "relu", "trainable": true, "name": "activation_1"}, "inbound_nodes": [[["conv1_1_3x3_s2_bn", 0, 0, {}]]], "name": "activation_1"}, {"class_name": "Conv2D", "config": {"kernel_constraint": null, "kernel_initializer": {"class_name": "VarianceScaling", "config": {"distribution": "uniform", "scale": 1.0, "seed": null, "mode": "fan_avg"}}, "name": "conv1_2_3x3", "bias_regularizer": null, "bias_constraint": null, "activation": "linear", "trainable": true, "data_format": "channels_last", "padding": "same", "strides": [1, 1], "dilation_rate": [1, 1], "kernel_regularizer": null, "filters": 64, "bias_initializer": {"class_name": "Zeros", "config": {}}, "use_bias": false, "activity_regularizer": null, "kernel_size": [3, 3]}, "inbound_nodes": [[["activation_1", 0, 0, {}]]], "name": "conv1_2_3x3"}, {"class_name": "BatchNormalization", "config": {"beta_constraint": null, "gamma_initializer": {"class_name": "Ones", "config": {}}, "moving_mean_initializer": {"class_name": "Zeros", "config": {}}, "name": "conv1_2_3x3_bn", "epsilon": 1e-05, "trainable": true, "moving_variance_initializer": {"class_name": "Ones", "config": {}}, "beta_initializer": {"class_name": "Zeros", "config": {}}, "scale": true, "axis": -1, "gamma_constraint": null, "gamma_regularizer": null, "beta_regularizer": null, "momentum": 0.95, "center": true}, "inbound_nodes": [[["conv1_2_3x3", 0, 0, {}]]], "name": "conv1_2_3x3_bn"}, {"class_name": "Activation", "config": {"activation": "relu", "trainable": true, "name": "activation_2"}, "inbound_nodes": [[["conv1_2_3x3_bn", 0, 0, {}]]], "name": "activation_2"}, {"class_name": "Conv2D", "config": {"kernel_constraint": null, "kernel_initializer": {"class_name": "VarianceScaling", "config": {"distribution": "uniform", "scale": 1.0, "seed": null, "mode": "fan_avg"}}, "name": "conv1_3_3x3", "bias_regularizer": null, "bias_constraint": null, "activation": "linear", "trainable": true, "data_format": "channels_last", "padding": "same", "strides": [1, 1], "dilation_rate": [1, 1], "kernel_regularizer": null, "filters": 128, "bias_initializer": {"class_name": "Zeros", "config": {}}, "use_bias": false, "activity_regularizer": null, "kernel_size": [3, 3]}, "inbound_nodes": [[["activation_2", 0, 0, {}]]], "name": "conv1_3_3x3"}, {"class_name": "BatchNormalization", "config": {"beta_constraint": null, "gamma_initializer": {"class_name": "Ones", "config": {}}, "moving_mean_initializer": {"class_name": "Zeros", "config": {}}, "name": "conv1_3_3x3_bn", "epsilon": 1e-05, "trainable": true, "moving_variance_initializer": {"class_name": "Ones", "config": {}}, "beta_initializer": {"class_name": "Zeros", "config": {}}, "scale": true, "axis": -1, "gamma_constraint": null, "gamma_regularizer": null, "beta_regularizer": null, "momentum": 0.95, "center": true}, "inbound_nodes": [[["conv1_3_3x3", 0, 0, {}]]], "name": "conv1_3_3x3_bn"}, {"class_name": "Activation", "config": {"activation": "relu", "trainable": true, "name": "activation_3"}, "inbound_nodes": [[["conv1_3_3x3_bn", 0, 0, {}]]], "name": "activation_3"}, {"class_name": "MaxPooling2D", "config": {"name": "max_pooling2d_1", "trainable": true, "data_format": "channels_last", "pool_size": [3, 3], "padding": "same", "strides": [2, 2]}, "inbound_nodes": [[["activation_3", 0, 0, {}]]], "name": "max_pooling2d_1"}, {"class_name": "Activation", "config": {"activation": "relu", "trainable": true, "name": "activation_4"}, "inbound_nodes": [[["max_pooling2d_1", 0, 0, {}]]], "name": "activation_4"}, {"class_name": "Conv2D", "config": {"kernel_constraint": null, "kernel_initializer": {"class_name": "VarianceScaling", "config": {"distribution": "uniform", "scale": 1.0, "seed": null, "mode": "fan_avg"}}, "name": "conv2_1_1x1_reduce", "bias_regularizer": null, "bias_constraint": null, "activation": "linear", "trainable": true, "data_format": "channels_last", "padding": "valid", "strides": [1, 1], "dilation_rate": [1, 1], "kernel_regularizer": null, "filters": 64, "bias_initializer": {"class_name": "Zeros", "config": {}}, "use_bias": false, "activity_regularizer": null, "kernel_size": [1, 1]}, "inbound_nodes": [[["activation_4", 0, 0, {}]]], "name": "conv2_1_1x1_reduce"}, {"class_name": "BatchNormalization", "config": {"beta_constraint": null, "gamma_initializer": {"class_name": "Ones", "config": {}}, "moving_mean_initializer": {"class_name": "Zeros", "config": {}}, "name": "conv2_1_1x1_reduce_bn", "epsilon": 1e-05, "trainable": true, "moving_variance_initializer": {"class_name": "Ones", "config": {}}, "beta_initializer": {"class_name": "Zeros", "config": {}}, "scale": true, "axis": -1, "gamma_constraint": null, "gamma_regularizer": null, "beta_regularizer": null, "momentum": 0.95, "center": true}, "inbound_nodes": [[["conv2_1_1x1_reduce", 0, 0, {}]]], "name": "conv2_1_1x1_reduce_bn"}, {"class_name": "Activation", "config": {"activation": "relu", "trainable": true, "name": "activation_5"}, "inbound_nodes": [[["conv2_1_1x1_reduce_bn", 0, 0, {}]]], "name": "activation_5"}, {"class_name": "ZeroPadding2D", "config": {"padding": [[1, 1], [1, 1]], "trainable": true, "name": "zero_padding2d_1", "data_format": "channels_last"}, "inbound_nodes": [[["activation_5", 0, 0, {}]]], "name": "zero_padding2d_1"}, {"class_name": "Conv2D", "config": {"kernel_constraint": null, "kernel_initializer": {"class_name": "VarianceScaling", "config": {"distribution": "uniform", "scale": 1.0, "seed": null, "mode": "fan_avg"}}, "name": "conv2_1_3x3", "bias_regularizer": null, "bias_constraint": null, "activation": "linear", "trainable": true, "data_format": "channels_last", "padding": "valid", "strides": [1, 1], "dilation_rate": [1, 1], "kernel_regularizer": null, "filters": 64, "bias_initializer": {"class_name": "Zeros", "config": {}}, "use_bias": false, "activity_regularizer": null, "kernel_size": [3, 3]}, "inbound_nodes": [[["zero_padding2d_1", 0, 0, {}]]], "name": "conv2_1_3x3"}, {"class_name": "BatchNormalization", "config": {"beta_constraint": null, "gamma_initializer": {"class_name": "Ones", "config": {}}, "moving_mean_initializer": {"class_name": "Zeros", "config": {}}, "name": "conv2_1_3x3_bn", "epsilon": 1e-05, "trainable": true, "moving_variance_initializer": {"class_name": "Ones", "config": {}}, "beta_initializer": {"class_name": "Zeros", "config": {}}, "scale": true, "axis": -1, "gamma_constraint": null, "gamma_regularizer": null, "beta_regularizer": null, "momentum": 0.95, "center": true}, "inbound_nodes": [[["conv2_1_3x3", 0, 0, {}]]], "name": "conv2_1_3x3_bn"}, {"class_name": "Activation", "config": {"activation": "relu", "trainable": true, "name": "activation_6"}, "inbound_nodes": [[["conv2_1_3x3_bn", 0, 0, {}]]], "name": "activation_6"}, {"class_name": "Conv2D", "config": {"kernel_constraint": null, "kernel_initializer": {"class_name": "VarianceScaling", "config": {"distribution": "uniform", "scale": 1.0, "seed": null, "mode": "fan_avg"}}, "name": "conv2_1_1x1_increase", "bias_regularizer": null, "bias_constraint": null, "activation": "linear", "trainable": true, "data_format": "channels_last", "padding": "valid", "strides": [1, 1], "dilation_rate": [1, 1], "kernel_regularizer": null, "filters": 256, "bias_initializer": {"class_name": "Zeros", "config": {}}, "use_bias": false, "activity_regularizer": null, "kernel_size": [1, 1]}, "inbound_nodes": [[["activation_6", 0, 0, {}]]], "name": "conv2_1_1x1_increase"}, {"class_name": "Conv2D", "config": {"kernel_constraint": null, "kernel_initializer": {"class_name": "VarianceScaling", "config": {"distribution": "uniform", "scale": 1.0, "seed": null, "mode": "fan_avg"}}, "name": "conv2_1_1x1_proj", "bias_regularizer": null, "bias_constraint": null, "activation": "linear", "trainable": true, "data_format": "channels_last", "padding": "valid", "strides": [1, 1], "dilation_rate": [1, 1], "kernel_regularizer": null, "filters": 256, "bias_initializer": {"class_name": "Zeros", "config": {}}, "use_bias": false, "activity_regularizer": null, "kernel_size": [1, 1]}, "inbound_nodes": [[["activation_4", 0, 0, {}]]], "name": "conv2_1_1x1_proj"}, {"class_name": "BatchNormalization", "config": {"beta_constraint": null, "gamma_initializer": {"class_name": "Ones", "config": {}}, "moving_mean_initializer": {"class_name": "Zeros", "config": {}}, "name": "conv2_1_1x1_increase_bn", "epsilon": 1e-05, "trainable": true, "moving_variance_initializer": {"class_name": "Ones", "config": {}}, "beta_initializer": {"class_name": "Zeros", "config": {}}, "scale": true, "axis": -1, "gamma_constraint": null, "gamma_regularizer": null, "beta_regularizer": null, "momentum": 0.95, "center": true}, "inbound_nodes": [[["conv2_1_1x1_increase", 0, 0, {}]]], "name": "conv2_1_1x1_increase_bn"}, {"class_name": "BatchNormalization", "config": {"beta_constraint": null, "gamma_initializer": {"class_name": "Ones", "config": {}}, "moving_mean_initializer": {"class_name": "Zeros", "config": {}}, "name": "conv2_1_1x1_proj_bn", "epsilon": 1e-05, "trainable": true, "moving_variance_initializer": {"class_name": "Ones", "config": {}}, "beta_initializer": {"class_name": "Zeros", "config": {}}, "scale": true, "axis": -1, "gamma_constraint": null, "gamma_regularizer": null, "beta_regularizer": null, "momentum": 0.95, "center": true}, "inbound_nodes": [[["conv2_1_1x1_proj", 0, 0, {}]]], "name": "conv2_1_1x1_proj_bn"}, {"class_name": "Add", "config": {"trainable": true, "name": "add_1"}, "inbound_nodes": [[["conv2_1_1x1_increase_bn", 0, 0, {}], ["conv2_1_1x1_proj_bn", 0, 0, {}]]], "name": "add_1"}, {"class_name": "Activation", "config": {"activation": "relu", "trainable": true, "name": "activation_7"}, "inbound_nodes": [[["add_1", 0, 0, {}]]], "name": "activation_7"}, {"class_name": "Conv2D", "config": {"kernel_constraint": null, "kernel_initializer": {"class_name": "VarianceScaling", "config": {"distribution": "uniform", "scale": 1.0, "seed": null, "mode": "fan_avg"}}, "name": "conv2_2_1x1_reduce", "bias_regularizer": null, "bias_constraint": null, "activation": "linear", "trainable": true, "data_format": "channels_last", "padding": "valid", "strides": [1, 1], "dilation_rate": [1, 1], "kernel_regularizer": null, "filters": 64, "bias_initializer": {"class_name": "Zeros", "config": {}}, "use_bias": false, "activity_regularizer": null, "kernel_size": [1, 1]}, "inbound_nodes": [[["activation_7", 0, 0, {}]]], "name": "conv2_2_1x1_reduce"}, {"class_name": "BatchNormalization", "config": {"beta_constraint": null, "gamma_initializer": {"class_name": "Ones", "config": {}}, "moving_mean_initializer": {"class_name": "Zeros", "config": {}}, "name": "conv2_2_1x1_reduce_bn", "epsilon": 1e-05, "trainable": true, "moving_variance_initializer": {"class_name": "Ones", "config": {}}, "beta_initializer": {"class_name": "Zeros", "config": {}}, "scale": true, "axis": -1, "gamma_constraint": null, "gamma_regularizer": null, "beta_regularizer": null, "momentum": 0.95, "center": true}, "inbound_nodes": [[["conv2_2_1x1_reduce", 0, 0, {}]]], "name": "conv2_2_1x1_reduce_bn"}, {"class_name": "Activation", "config": {"activation": "relu", "trainable": true, "name": "activation_8"}, "inbound_nodes": [[["conv2_2_1x1_reduce_bn", 0, 0, {}]]], "name": "activation_8"}, {"class_name": "ZeroPadding2D", "config": {"padding": [[1, 1], [1, 1]], "trainable": true, "name": "zero_padding2d_2", "data_format": "channels_last"}, "inbound_nodes": [[["activation_8", 0, 0, {}]]], "name": "zero_padding2d_2"}, {"class_name": "Conv2D", "config": {"kernel_constraint": null, "kernel_initializer": {"class_name": "VarianceScaling", "config": {"distribution": "uniform", "scale": 1.0, "seed": null, "mode": "fan_avg"}}, "name": "conv2_2_3x3", "bias_regularizer": null, "bias_constraint": null, "activation": "linear", "trainable": true, "data_format": "channels_last", "padding": "valid", "strides": [1, 1], "dilation_rate": [1, 1], "kernel_regularizer": null, "filters": 64, "bias_initializer": {"class_name": "Zeros", "config": {}}, "use_bias": false, "activity_regularizer": null, "kernel_size": [3, 3]}, "inbound_nodes": [[["zero_padding2d_2", 0, 0, {}]]], "name": "conv2_2_3x3"}, {"class_name": "BatchNormalization", "config": {"beta_constraint": null, "gamma_initializer": {"class_name": "Ones", "config": {}}, "moving_mean_initializer": {"class_name": "Zeros", "config": {}}, "name": "conv2_2_3x3_bn", "epsilon": 1e-05, "trainable": true, "moving_variance_initializer": {"class_name": "Ones", "config": {}}, "beta_initializer": {"class_name": "Zeros", "config": {}}, "scale": true, "axis": -1, "gamma_constraint": null, "gamma_regularizer": null, "beta_regularizer": null, "momentum": 0.95, "center": true}, "inbound_nodes": [[["conv2_2_3x3", 0, 0, {}]]], "name": "conv2_2_3x3_bn"}, {"class_name": "Activation", "config": {"activation": "relu", "trainable": true, "name": "activation_9"}, "inbound_nodes": [[["conv2_2_3x3_bn", 0, 0, {}]]], "name": "activation_9"}, {"class_name": "Conv2D", "config": {"kernel_constraint": null, "kernel_initializer": {"class_name": "VarianceScaling", "config": {"distribution": "uniform", "scale": 1.0, "seed": null, "mode": "fan_avg"}}, "name": "conv2_2_1x1_increase", "bias_regularizer": null, "bias_constraint": null, "activation": "linear", "trainable": true, "data_format": "channels_last", "padding": "valid", "strides": [1, 1], "dilation_rate": [1, 1], "kernel_regularizer": null, "filters": 256, "bias_initializer": {"class_name": "Zeros", "config": {}}, "use_bias": false, "activity_regularizer": null, "kernel_size": [1, 1]}, "inbound_nodes": [[["activation_9", 0, 0, {}]]], "name": "conv2_2_1x1_increase"}, {"class_name": "BatchNormalization", "config": {"beta_constraint": null, "gamma_initializer": {"class_name": "Ones", "config": {}}, "moving_mean_initializer": {"class_name": "Zeros", "config": {}}, "name": "conv2_2_1x1_increase_bn", "epsilon": 1e-05, "trainable": true, "moving_variance_initializer": {"class_name": "Ones", "config": {}}, "beta_initializer": {"class_name": "Zeros", "config": {}}, "scale": true, "axis": -1, "gamma_constraint": null, "gamma_regularizer": null, "beta_regularizer": null, "momentum": 0.95, "center": true}, "inbound_nodes": [[["conv2_2_1x1_increase", 0, 0, {}]]], "name": "conv2_2_1x1_increase_bn"}, {"class_name": "Add", "config": {"trainable": true, "name": "add_2"}, "inbound_nodes": [[["conv2_2_1x1_increase_bn", 0, 0, {}], ["activation_7", 0, 0, {}]]], "name": "add_2"}, {"class_name": "Activation", "config": {"activation": "relu", "trainable": true, "name": "activation_10"}, "inbound_nodes": [[["add_2", 0, 0, {}]]], "name": "activation_10"}, {"class_name": "Conv2D", "config": {"kernel_constraint": null, "kernel_initializer": {"class_name": "VarianceScaling", "config": {"distribution": "uniform", "scale": 1.0, "seed": null, "mode": "fan_avg"}}, "name": "conv2_3_1x1_reduce", "bias_regularizer": null, "bias_constraint": null, "activation": "linear", "trainable": true, "data_format": "channels_last", "padding": "valid", "strides": [1, 1], "dilation_rate": [1, 1], "kernel_regularizer": null, "filters": 64, "bias_initializer": {"class_name": "Zeros", "config": {}}, "use_bias": false, "activity_regularizer": null, "kernel_size": [1, 1]}, "inbound_nodes": [[["activation_10", 0, 0, {}]]], "name": "conv2_3_1x1_reduce"}, {"class_name": "BatchNormalization", "config": {"beta_constraint": null, "gamma_initializer": {"class_name": "Ones", "config": {}}, "moving_mean_initializer": {"class_name": "Zeros", "config": {}}, "name": "conv2_3_1x1_reduce_bn", "epsilon": 1e-05, "trainable": true, "moving_variance_initializer": {"class_name": "Ones", "config": {}}, "beta_initializer": {"class_name": "Zeros", "config": {}}, "scale": true, "axis": -1, "gamma_constraint": null, "gamma_regularizer": null, "beta_regularizer": null, "momentum": 0.95, "center": true}, "inbound_nodes": [[["conv2_3_1x1_reduce", 0, 0, {}]]], "name": "conv2_3_1x1_reduce_bn"}, {"class_name": "Activation", "config": {"activation": "relu", "trainable": true, "name": "activation_11"}, "inbound_nodes": [[["conv2_3_1x1_reduce_bn", 0, 0, {}]]], "name": "activation_11"}, {"class_name": "ZeroPadding2D", "config": {"padding": [[1, 1], [1, 1]], "trainable": true, "name": "zero_padding2d_3", "data_format": "channels_last"}, "inbound_nodes": [[["activation_11", 0, 0, {}]]], "name": "zero_padding2d_3"}, {"class_name": "Conv2D", "config": {"kernel_constraint": null, "kernel_initializer": {"class_name": "VarianceScaling", "config": {"distribution": "uniform", "scale": 1.0, "seed": null, "mode": "fan_avg"}}, "name": "conv2_3_3x3", "bias_regularizer": null, "bias_constraint": null, "activation": "linear", "trainable": true, "data_format": "channels_last", "padding": "valid", "strides": [1, 1], "dilation_rate": [1, 1], "kernel_regularizer": null, "filters": 64, "bias_initializer": {"class_name": "Zeros", "config": {}}, "use_bias": false, "activity_regularizer": null, "kernel_size": [3, 3]}, "inbound_nodes": [[["zero_padding2d_3", 0, 0, {}]]], "name": "conv2_3_3x3"}, {"class_name": "BatchNormalization", "config": {"beta_constraint": null, "gamma_initializer": {"class_name": "Ones", "config": {}}, "moving_mean_initializer": {"class_name": "Zeros", "config": {}}, "name": "conv2_3_3x3_bn", "epsilon": 1e-05, "trainable": true, "moving_variance_initializer": {"class_name": "Ones", "config": {}}, "beta_initializer": {"class_name": "Zeros", "config": {}}, "scale": true, "axis": -1, "gamma_constraint": null, "gamma_regularizer": null, "beta_regularizer": null, "momentum": 0.95, "center": true}, "inbound_nodes": [[["conv2_3_3x3", 0, 0, {}]]], "name": "conv2_3_3x3_bn"}, {"class_name": "Activation", "config": {"activation": "relu", "trainable": true, "name": "activation_12"}, "inbound_nodes": [[["conv2_3_3x3_bn", 0, 0, {}]]], "name": "activation_12"}, {"class_name": "Conv2D", "config": {"kernel_constraint": null, "kernel_initializer": {"class_name": "VarianceScaling", "config": {"distribution": "uniform", "scale": 1.0, "seed": null, "mode": "fan_avg"}}, "name": "conv2_3_1x1_increase", "bias_regularizer": null, "bias_constraint": null, "activation": "linear", "trainable": true, "data_format": "channels_last", "padding": "valid", "strides": [1, 1], "dilation_rate": [1, 1], "kernel_regularizer": null, "filters": 256, "bias_initializer": {"class_name": "Zeros", "config": {}}, "use_bias": false, "activity_regularizer": null, "kernel_size": [1, 1]}, "inbound_nodes": [[["activation_12", 0, 0, {}]]], "name": "conv2_3_1x1_increase"}, {"class_name": "BatchNormalization", "config": {"beta_constraint": null, "gamma_initializer": {"class_name": "Ones", "config": {}}, "moving_mean_initializer": {"class_name": "Zeros", "config": {}}, "name": "conv2_3_1x1_increase_bn", "epsilon": 1e-05, "trainable": true, "moving_variance_initializer": {"class_name": "Ones", "config": {}}, "beta_initializer": {"class_name": "Zeros", "config": {}}, "scale": true, "axis": -1, "gamma_constraint": null, "gamma_regularizer": null, "beta_regularizer": null, "momentum": 0.95, "center": true}, "inbound_nodes": [[["conv2_3_1x1_increase", 0, 0, {}]]], "name": "conv2_3_1x1_increase_bn"}, {"class_name": "Add", "config": {"trainable": true, "name": "add_3"}, "inbound_nodes": [[["conv2_3_1x1_increase_bn", 0, 0, {}], ["activation_10", 0, 0, {}]]], "name": "add_3"}, {"class_name": "Activation", "config": {"activation": "relu", "trainable": true, "name": "activation_13"}, "inbound_nodes": [[["add_3", 0, 0, {}]]], "name": "activation_13"}, {"class_name": "Conv2D", "config": {"kernel_constraint": null, "kernel_initializer": {"class_name": "VarianceScaling", "config": {"distribution": "uniform", "scale": 1.0, "seed": null, "mode": "fan_avg"}}, "name": "conv3_1_1x1_reduce", "bias_regularizer": null, "bias_constraint": null, "activation": "linear", "trainable": true, "data_format": "channels_last", "padding": "valid", "strides": [2, 2], "dilation_rate": [1, 1], "kernel_regularizer": null, "filters": 128, "bias_initializer": {"class_name": "Zeros", "config": {}}, "use_bias": false, "activity_regularizer": null, "kernel_size": [1, 1]}, "inbound_nodes": [[["activation_13", 0, 0, {}]]], "name": "conv3_1_1x1_reduce"}, {"class_name": "BatchNormalization", "config": {"beta_constraint": null, "gamma_initializer": {"class_name": "Ones", "config": {}}, "moving_mean_initializer": {"class_name": "Zeros", "config": {}}, "name": "conv3_1_1x1_reduce_bn", "epsilon": 1e-05, "trainable": true, "moving_variance_initializer": {"class_name": "Ones", "config": {}}, "beta_initializer": {"class_name": "Zeros", "config": {}}, "scale": true, "axis": -1, "gamma_constraint": null, "gamma_regularizer": null, "beta_regularizer": null, "momentum": 0.95, "center": true}, "inbound_nodes": [[["conv3_1_1x1_reduce", 0, 0, {}]]], "name": "conv3_1_1x1_reduce_bn"}, {"class_name": "Activation", "config": {"activation": "relu", "trainable": true, "name": "activation_14"}, "inbound_nodes": [[["conv3_1_1x1_reduce_bn", 0, 0, {}]]], "name": "activation_14"}, {"class_name": "ZeroPadding2D", "config": {"padding": [[1, 1], [1, 1]], "trainable": true, "name": "zero_padding2d_4", "data_format": "channels_last"}, "inbound_nodes": [[["activation_14", 0, 0, {}]]], "name": "zero_padding2d_4"}, {"class_name": "Conv2D", "config": {"kernel_constraint": null, "kernel_initializer": {"class_name": "VarianceScaling", "config": {"distribution": "uniform", "scale": 1.0, "seed": null, "mode": "fan_avg"}}, "name": "conv3_1_3x3", "bias_regularizer": null, "bias_constraint": null, "activation": "linear", "trainable": true, "data_format": "channels_last", "padding": "valid", "strides": [1, 1], "dilation_rate": [1, 1], "kernel_regularizer": null, "filters": 128, "bias_initializer": {"class_name": "Zeros", "config": {}}, "use_bias": false, "activity_regularizer": null, "kernel_size": [3, 3]}, "inbound_nodes": [[["zero_padding2d_4", 0, 0, {}]]], "name": "conv3_1_3x3"}, {"class_name": "BatchNormalization", "config": {"beta_constraint": null, "gamma_initializer": {"class_name": "Ones", "config": {}}, "moving_mean_initializer": {"class_name": "Zeros", "config": {}}, "name": "conv3_1_3x3_bn", "epsilon": 1e-05, "trainable": true, "moving_variance_initializer": {"class_name": "Ones", "config": {}}, "beta_initializer": {"class_name": "Zeros", "config": {}}, "scale": true, "axis": -1, "gamma_constraint": null, "gamma_regularizer": null, "beta_regularizer": null, "momentum": 0.95, "center": true}, "inbound_nodes": [[["conv3_1_3x3", 0, 0, {}]]], "name": "conv3_1_3x3_bn"}, {"class_name": "Activation", "config": {"activation": "relu", "trainable": true, "name": "activation_15"}, "inbound_nodes": [[["conv3_1_3x3_bn", 0, 0, {}]]], "name": "activation_15"}, {"class_name": "Conv2D", "config": {"kernel_constraint": null, "kernel_initializer": {"class_name": "VarianceScaling", "config": {"distribution": "uniform", "scale": 1.0, "seed": null, "mode": "fan_avg"}}, "name": "conv3_1_1x1_increase", "bias_regularizer": null, "bias_constraint": null, "activation": "linear", "trainable": true, "data_format": "channels_last", "padding": "valid", "strides": [1, 1], "dilation_rate": [1, 1], "kernel_regularizer": null, "filters": 512, "bias_initializer": {"class_name": "Zeros", "config": {}}, "use_bias": false, "activity_regularizer": null, "kernel_size": [1, 1]}, "inbound_nodes": [[["activation_15", 0, 0, {}]]], "name": "conv3_1_1x1_increase"}, {"class_name": "Conv2D", "config": {"kernel_constraint": null, "kernel_initializer": {"class_name": "VarianceScaling", "config": {"distribution": "uniform", "scale": 1.0, "seed": null, "mode": "fan_avg"}}, "name": "conv3_1_1x1_proj", "bias_regularizer": null, "bias_constraint": null, "activation": "linear", "trainable": true, "data_format": "channels_last", "padding": "valid", "strides": [2, 2], "dilation_rate": [1, 1], "kernel_regularizer": null, "filters": 512, "bias_initializer": {"class_name": "Zeros", "config": {}}, "use_bias": false, "activity_regularizer": null, "kernel_size": [1, 1]}, "inbound_nodes": [[["activation_13", 0, 0, {}]]], "name": "conv3_1_1x1_proj"}, {"class_name": "BatchNormalization", "config": {"beta_constraint": null, "gamma_initializer": {"class_name": "Ones", "config": {}}, "moving_mean_initializer": {"class_name": "Zeros", "config": {}}, "name": "conv3_1_1x1_increase_bn", "epsilon": 1e-05, "trainable": true, "moving_variance_initializer": {"class_name": "Ones", "config": {}}, "beta_initializer": {"class_name": "Zeros", "config": {}}, "scale": true, "axis": -1, "gamma_constraint": null, "gamma_regularizer": null, "beta_regularizer": null, "momentum": 0.95, "center": true}, "inbound_nodes": [[["conv3_1_1x1_increase", 0, 0, {}]]], "name": "conv3_1_1x1_increase_bn"}, {"class_name": "BatchNormalization", "config": {"beta_constraint": null, "gamma_initializer": {"class_name": "Ones", "config": {}}, "moving_mean_initializer": {"class_name": "Zeros", "config": {}}, "name": "conv3_1_1x1_proj_bn", "epsilon": 1e-05, "trainable": true, "moving_variance_initializer": {"class_name": "Ones", "config": {}}, "beta_initializer": {"class_name": "Zeros", "config": {}}, "scale": true, "axis": -1, "gamma_constraint": null, "gamma_regularizer": null, "beta_regularizer": null, "momentum": 0.95, "center": true}, "inbound_nodes": [[["conv3_1_1x1_proj", 0, 0, {}]]], "name": "conv3_1_1x1_proj_bn"}, {"class_name": "Add", "config": {"trainable": true, "name": "add_4"}, "inbound_nodes": [[["conv3_1_1x1_increase_bn", 0, 0, {}], ["conv3_1_1x1_proj_bn", 0, 0, {}]]], "name": "add_4"}, {"class_name": "Activation", "config": {"activation": "relu", "trainable": true, "name": "activation_16"}, "inbound_nodes": [[["add_4", 0, 0, {}]]], "name": "activation_16"}, {"class_name": "Conv2D", "config": {"kernel_constraint": null, "kernel_initializer": {"class_name": "VarianceScaling", "config": {"distribution": "uniform", "scale": 1.0, "seed": null, "mode": "fan_avg"}}, "name": "conv3_2_1x1_reduce", "bias_regularizer": null, "bias_constraint": null, "activation": "linear", "trainable": true, "data_format": "channels_last", "padding": "valid", "strides": [1, 1], "dilation_rate": [1, 1], "kernel_regularizer": null, "filters": 128, "bias_initializer": {"class_name": "Zeros", "config": {}}, "use_bias": false, "activity_regularizer": null, "kernel_size": [1, 1]}, "inbound_nodes": [[["activation_16", 0, 0, {}]]], "name": "conv3_2_1x1_reduce"}, {"class_name": "BatchNormalization", "config": {"beta_constraint": null, "gamma_initializer": {"class_name": "Ones", "config": {}}, "moving_mean_initializer": {"class_name": "Zeros", "config": {}}, "name": "conv3_2_1x1_reduce_bn", "epsilon": 1e-05, "trainable": true, "moving_variance_initializer": {"class_name": "Ones", "config": {}}, "beta_initializer": {"class_name": "Zeros", "config": {}}, "scale": true, "axis": -1, "gamma_constraint": null, "gamma_regularizer": null, "beta_regularizer": null, "momentum": 0.95, "center": true}, "inbound_nodes": [[["conv3_2_1x1_reduce", 0, 0, {}]]], "name": "conv3_2_1x1_reduce_bn"}, {"class_name": "Activation", "config": {"activation": "relu", "trainable": true, "name": "activation_17"}, "inbound_nodes": [[["conv3_2_1x1_reduce_bn", 0, 0, {}]]], "name": "activation_17"}, {"class_name": "ZeroPadding2D", "config": {"padding": [[1, 1], [1, 1]], "trainable": true, "name": "zero_padding2d_5", "data_format": "channels_last"}, "inbound_nodes": [[["activation_17", 0, 0, {}]]], "name": "zero_padding2d_5"}, {"class_name": "Conv2D", "config": {"kernel_constraint": null, "kernel_initializer": {"class_name": "VarianceScaling", "config": {"distribution": "uniform", "scale": 1.0, "seed": null, "mode": "fan_avg"}}, "name": "conv3_2_3x3", "bias_regularizer": null, "bias_constraint": null, "activation": "linear", "trainable": true, "data_format": "channels_last", "padding": "valid", "strides": [1, 1], "dilation_rate": [1, 1], "kernel_regularizer": null, "filters": 128, "bias_initializer": {"class_name": "Zeros", "config": {}}, "use_bias": false, "activity_regularizer": null, "kernel_size": [3, 3]}, "inbound_nodes": [[["zero_padding2d_5", 0, 0, {}]]], "name": "conv3_2_3x3"}, {"class_name": "BatchNormalization", "config": {"beta_constraint": null, "gamma_initializer": {"class_name": "Ones", "config": {}}, "moving_mean_initializer": {"class_name": "Zeros", "config": {}}, "name": "conv3_2_3x3_bn", "epsilon": 1e-05, "trainable": true, "moving_variance_initializer": {"class_name": "Ones", "config": {}}, "beta_initializer": {"class_name": "Zeros", "config": {}}, "scale": true, "axis": -1, "gamma_constraint": null, "gamma_regularizer": null, "beta_regularizer": null, "momentum": 0.95, "center": true}, "inbound_nodes": [[["conv3_2_3x3", 0, 0, {}]]], "name": "conv3_2_3x3_bn"}, {"class_name": "Activation", "config": {"activation": "relu", "trainable": true, "name": "activation_18"}, "inbound_nodes": [[["conv3_2_3x3_bn", 0, 0, {}]]], "name": "activation_18"}, {"class_name": "Conv2D", "config": {"kernel_constraint": null, "kernel_initializer": {"class_name": "VarianceScaling", "config": {"distribution": "uniform", "scale": 1.0, "seed": null, "mode": "fan_avg"}}, "name": "conv3_2_1x1_increase", "bias_regularizer": null, "bias_constraint": null, "activation": "linear", "trainable": true, "data_format": "channels_last", "padding": "valid", "strides": [1, 1], "dilation_rate": [1, 1], "kernel_regularizer": null, "filters": 512, "bias_initializer": {"class_name": "Zeros", "config": {}}, "use_bias": false, "activity_regularizer": null, "kernel_size": [1, 1]}, "inbound_nodes": [[["activation_18", 0, 0, {}]]], "name": "conv3_2_1x1_increase"}, {"class_name": "BatchNormalization", "config": {"beta_constraint": null, "gamma_initializer": {"class_name": "Ones", "config": {}}, "moving_mean_initializer": {"class_name": "Zeros", "config": {}}, "name": "conv3_2_1x1_increase_bn", "epsilon": 1e-05, "trainable": true, "moving_variance_initializer": {"class_name": "Ones", "config": {}}, "beta_initializer": {"class_name": "Zeros", "config": {}}, "scale": true, "axis": -1, "gamma_constraint": null, "gamma_regularizer": null, "beta_regularizer": null, "momentum": 0.95, "center": true}, "inbound_nodes": [[["conv3_2_1x1_increase", 0, 0, {}]]], "name": "conv3_2_1x1_increase_bn"}, {"class_name": "Add", "config": {"trainable": true, "name": "add_5"}, "inbound_nodes": [[["conv3_2_1x1_increase_bn", 0, 0, {}], ["activation_16", 0, 0, {}]]], "name": "add_5"}, {"class_name": "Activation", "config": {"activation": "relu", "trainable": true, "name": "activation_19"}, "inbound_nodes": [[["add_5", 0, 0, {}]]], "name": "activation_19"}, {"class_name": "Conv2D", "config": {"kernel_constraint": null, "kernel_initializer": {"class_name": "VarianceScaling", "config": {"distribution": "uniform", "scale": 1.0, "seed": null, "mode": "fan_avg"}}, "name": "conv3_3_1x1_reduce", "bias_regularizer": null, "bias_constraint": null, "activation": "linear", "trainable": true, "data_format": "channels_last", "padding": "valid", "strides": [1, 1], "dilation_rate": [1, 1], "kernel_regularizer": null, "filters": 128, "bias_initializer": {"class_name": "Zeros", "config": {}}, "use_bias": false, "activity_regularizer": null, "kernel_size": [1, 1]}, "inbound_nodes": [[["activation_19", 0, 0, {}]]], "name": "conv3_3_1x1_reduce"}, {"class_name": "BatchNormalization", "config": {"beta_constraint": null, "gamma_initializer": {"class_name": "Ones", "config": {}}, "moving_mean_initializer": {"class_name": "Zeros", "config": {}}, "name": "conv3_3_1x1_reduce_bn", "epsilon": 1e-05, "trainable": true, "moving_variance_initializer": {"class_name": "Ones", "config": {}}, "beta_initializer": {"class_name": "Zeros", "config": {}}, "scale": true, "axis": -1, "gamma_constraint": null, "gamma_regularizer": null, "beta_regularizer": null, "momentum": 0.95, "center": true}, "inbound_nodes": [[["conv3_3_1x1_reduce", 0, 0, {}]]], "name": "conv3_3_1x1_reduce_bn"}, {"class_name": "Activation", "config": {"activation": "relu", "trainable": true, "name": "activation_20"}, "inbound_nodes": [[["conv3_3_1x1_reduce_bn", 0, 0, {}]]], "name": "activation_20"}, {"class_name": "ZeroPadding2D", "config": {"padding": [[1, 1], [1, 1]], "trainable": true, "name": "zero_padding2d_6", "data_format": "channels_last"}, "inbound_nodes": [[["activation_20", 0, 0, {}]]], "name": "zero_padding2d_6"}, {"class_name": "Conv2D", "config": {"kernel_constraint": null, "kernel_initializer": {"class_name": "VarianceScaling", "config": {"distribution": "uniform", "scale": 1.0, "seed": null, "mode": "fan_avg"}}, "name": "conv3_3_3x3", "bias_regularizer": null, "bias_constraint": null, "activation": "linear", "trainable": true, "data_format": "channels_last", "padding": "valid", "strides": [1, 1], "dilation_rate": [1, 1], "kernel_regularizer": null, "filters": 128, "bias_initializer": {"class_name": "Zeros", "config": {}}, "use_bias": false, "activity_regularizer": null, "kernel_size": [3, 3]}, "inbound_nodes": [[["zero_padding2d_6", 0, 0, {}]]], "name": "conv3_3_3x3"}, {"class_name": "BatchNormalization", "config": {"beta_constraint": null, "gamma_initializer": {"class_name": "Ones", "config": {}}, "moving_mean_initializer": {"class_name": "Zeros", "config": {}}, "name": "conv3_3_3x3_bn", "epsilon": 1e-05, "trainable": true, "moving_variance_initializer": {"class_name": "Ones", "config": {}}, "beta_initializer": {"class_name": "Zeros", "config": {}}, "scale": true, "axis": -1, "gamma_constraint": null, "gamma_regularizer": null, "beta_regularizer": null, "momentum": 0.95, "center": true}, "inbound_nodes": [[["conv3_3_3x3", 0, 0, {}]]], "name": "conv3_3_3x3_bn"}, {"class_name": "Activation", "config": {"activation": "relu", "trainable": true, "name": "activation_21"}, "inbound_nodes": [[["conv3_3_3x3_bn", 0, 0, {}]]], "name": "activation_21"}, {"class_name": "Conv2D", "config": {"kernel_constraint": null, "kernel_initializer": {"class_name": "VarianceScaling", "config": {"distribution": "uniform", "scale": 1.0, "seed": null, "mode": "fan_avg"}}, "name": "conv3_3_1x1_increase", "bias_regularizer": null, "bias_constraint": null, "activation": "linear", "trainable": true, "data_format": "channels_last", "padding": "valid", "strides": [1, 1], "dilation_rate": [1, 1], "kernel_regularizer": null, "filters": 512, "bias_initializer": {"class_name": "Zeros", "config": {}}, "use_bias": false, "activity_regularizer": null, "kernel_size": [1, 1]}, "inbound_nodes": [[["activation_21", 0, 0, {}]]], "name": "conv3_3_1x1_increase"}, {"class_name": "BatchNormalization", "config": {"beta_constraint": null, "gamma_initializer": {"class_name": "Ones", "config": {}}, "moving_mean_initializer": {"class_name": "Zeros", "config": {}}, "name": "conv3_3_1x1_increase_bn", "epsilon": 1e-05, "trainable": true, "moving_variance_initializer": {"class_name": "Ones", "config": {}}, "beta_initializer": {"class_name": "Zeros", "config": {}}, "scale": true, "axis": -1, "gamma_constraint": null, "gamma_regularizer": null, "beta_regularizer": null, "momentum": 0.95, "center": true}, "inbound_nodes": [[["conv3_3_1x1_increase", 0, 0, {}]]], "name": "conv3_3_1x1_increase_bn"}, {"class_name": "Add", "config": {"trainable": true, "name": "add_6"}, "inbound_nodes": [[["conv3_3_1x1_increase_bn", 0, 0, {}], ["activation_19", 0, 0, {}]]], "name": "add_6"}, {"class_name": "Activation", "config": {"activation": "relu", "trainable": true, "name": "activation_22"}, "inbound_nodes": [[["add_6", 0, 0, {}]]], "name": "activation_22"}, {"class_name": "Conv2D", "config": {"kernel_constraint": null, "kernel_initializer": {"class_name": "VarianceScaling", "config": {"distribution": "uniform", "scale": 1.0, "seed": null, "mode": "fan_avg"}}, "name": "conv3_4_1x1_reduce", "bias_regularizer": null, "bias_constraint": null, "activation": "linear", "trainable": true, "data_format": "channels_last", "padding": "valid", "strides": [1, 1], "dilation_rate": [1, 1], "kernel_regularizer": null, "filters": 128, "bias_initializer": {"class_name": "Zeros", "config": {}}, "use_bias": false, "activity_regularizer": null, "kernel_size": [1, 1]}, "inbound_nodes": [[["activation_22", 0, 0, {}]]], "name": "conv3_4_1x1_reduce"}, {"class_name": "BatchNormalization", "config": {"beta_constraint": null, "gamma_initializer": {"class_name": "Ones", "config": {}}, "moving_mean_initializer": {"class_name": "Zeros", "config": {}}, "name": "conv3_4_1x1_reduce_bn", "epsilon": 1e-05, "trainable": true, "moving_variance_initializer": {"class_name": "Ones", "config": {}}, "beta_initializer": {"class_name": "Zeros", "config": {}}, "scale": true, "axis": -1, "gamma_constraint": null, "gamma_regularizer": null, "beta_regularizer": null, "momentum": 0.95, "center": true}, "inbound_nodes": [[["conv3_4_1x1_reduce", 0, 0, {}]]], "name": "conv3_4_1x1_reduce_bn"}, {"class_name": "Activation", "config": {"activation": "relu", "trainable": true, "name": "activation_23"}, "inbound_nodes": [[["conv3_4_1x1_reduce_bn", 0, 0, {}]]], "name": "activation_23"}, {"class_name": "ZeroPadding2D", "config": {"padding": [[1, 1], [1, 1]], "trainable": true, "name": "zero_padding2d_7", "data_format": "channels_last"}, "inbound_nodes": [[["activation_23", 0, 0, {}]]], "name": "zero_padding2d_7"}, {"class_name": "Conv2D", "config": {"kernel_constraint": null, "kernel_initializer": {"class_name": "VarianceScaling", "config": {"distribution": "uniform", "scale": 1.0, "seed": null, "mode": "fan_avg"}}, "name": "conv3_4_3x3", "bias_regularizer": null, "bias_constraint": null, "activation": "linear", "trainable": true, "data_format": "channels_last", "padding": "valid", "strides": [1, 1], "dilation_rate": [1, 1], "kernel_regularizer": null, "filters": 128, "bias_initializer": {"class_name": "Zeros", "config": {}}, "use_bias": false, "activity_regularizer": null, "kernel_size": [3, 3]}, "inbound_nodes": [[["zero_padding2d_7", 0, 0, {}]]], "name": "conv3_4_3x3"}, {"class_name": "BatchNormalization", "config": {"beta_constraint": null, "gamma_initializer": {"class_name": "Ones", "config": {}}, "moving_mean_initializer": {"class_name": "Zeros", "config": {}}, "name": "conv3_4_3x3_bn", "epsilon": 1e-05, "trainable": true, "moving_variance_initializer": {"class_name": "Ones", "config": {}}, "beta_initializer": {"class_name": "Zeros", "config": {}}, "scale": true, "axis": -1, "gamma_constraint": null, "gamma_regularizer": null, "beta_regularizer": null, "momentum": 0.95, "center": true}, "inbound_nodes": [[["conv3_4_3x3", 0, 0, {}]]], "name": "conv3_4_3x3_bn"}, {"class_name": "Activation", "config": {"activation": "relu", "trainable": true, "name": "activation_24"}, "inbound_nodes": [[["conv3_4_3x3_bn", 0, 0, {}]]], "name": "activation_24"}, {"class_name": "Conv2D", "config": {"kernel_constraint": null, "kernel_initializer": {"class_name": "VarianceScaling", "config": {"distribution": "uniform", "scale": 1.0, "seed": null, "mode": "fan_avg"}}, "name": "conv3_4_1x1_increase", "bias_regularizer": null, "bias_constraint": null, "activation": "linear", "trainable": true, "data_format": "channels_last", "padding": "valid", "strides": [1, 1], "dilation_rate": [1, 1], "kernel_regularizer": null, "filters": 512, "bias_initializer": {"class_name": "Zeros", "config": {}}, "use_bias": false, "activity_regularizer": null, "kernel_size": [1, 1]}, "inbound_nodes": [[["activation_24", 0, 0, {}]]], "name": "conv3_4_1x1_increase"}, {"class_name": "BatchNormalization", "config": {"beta_constraint": null, "gamma_initializer": {"class_name": "Ones", "config": {}}, "moving_mean_initializer": {"class_name": "Zeros", "config": {}}, "name": "conv3_4_1x1_increase_bn", "epsilon": 1e-05, "trainable": true, "moving_variance_initializer": {"class_name": "Ones", "config": {}}, "beta_initializer": {"class_name": "Zeros", "config": {}}, "scale": true, "axis": -1, "gamma_constraint": null, "gamma_regularizer": null, "beta_regularizer": null, "momentum": 0.95, "center": true}, "inbound_nodes": [[["conv3_4_1x1_increase", 0, 0, {}]]], "name": "conv3_4_1x1_increase_bn"}, {"class_name": "Add", "config": {"trainable": true, "name": "add_7"}, "inbound_nodes": [[["conv3_4_1x1_increase_bn", 0, 0, {}], ["activation_22", 0, 0, {}]]], "name": "add_7"}, {"class_name": "Activation", "config": {"activation": "relu", "trainable": true, "name": "activation_25"}, "inbound_nodes": [[["add_7", 0, 0, {}]]], "name": "activation_25"}, {"class_name": "Conv2D", "config": {"kernel_constraint": null, "kernel_initializer": {"class_name": "VarianceScaling", "config": {"distribution": "uniform", "scale": 1.0, "seed": null, "mode": "fan_avg"}}, "name": "conv4_1_1x1_reduce", "bias_regularizer": null, "bias_constraint": null, "activation": "linear", "trainable": true, "data_format": "channels_last", "padding": "valid", "strides": [1, 1], "dilation_rate": [1, 1], "kernel_regularizer": null, "filters": 256, "bias_initializer": {"class_name": "Zeros", "config": {}}, "use_bias": false, "activity_regularizer": null, "kernel_size": [1, 1]}, "inbound_nodes": [[["activation_25", 0, 0, {}]]], "name": "conv4_1_1x1_reduce"}, {"class_name": "BatchNormalization", "config": {"beta_constraint": null, "gamma_initializer": {"class_name": "Ones", "config": {}}, "moving_mean_initializer": {"class_name": "Zeros", "config": {}}, "name": "conv4_1_1x1_reduce_bn", "epsilon": 1e-05, "trainable": true, "moving_variance_initializer": {"class_name": "Ones", "config": {}}, "beta_initializer": {"class_name": "Zeros", "config": {}}, "scale": true, "axis": -1, "gamma_constraint": null, "gamma_regularizer": null, "beta_regularizer": null, "momentum": 0.95, "center": true}, "inbound_nodes": [[["conv4_1_1x1_reduce", 0, 0, {}]]], "name": "conv4_1_1x1_reduce_bn"}, {"class_name": "Activation", "config": {"activation": "relu", "trainable": true, "name": "activation_26"}, "inbound_nodes": [[["conv4_1_1x1_reduce_bn", 0, 0, {}]]], "name": "activation_26"}, {"class_name": "ZeroPadding2D", "config": {"padding": [[2, 2], [2, 2]], "trainable": true, "name": "zero_padding2d_8", "data_format": "channels_last"}, "inbound_nodes": [[["activation_26", 0, 0, {}]]], "name": "zero_padding2d_8"}, {"class_name": "Conv2D", "config": {"kernel_constraint": null, "kernel_initializer": {"class_name": "VarianceScaling", "config": {"distribution": "uniform", "scale": 1.0, "seed": null, "mode": "fan_avg"}}, "name": "conv4_1_3x3", "bias_regularizer": null, "bias_constraint": null, "activation": "linear", "trainable": true, "data_format": "channels_last", "padding": "valid", "strides": [1, 1], "dilation_rate": [2, 2], "kernel_regularizer": null, "filters": 256, "bias_initializer": {"class_name": "Zeros", "config": {}}, "use_bias": false, "activity_regularizer": null, "kernel_size": [3, 3]}, "inbound_nodes": [[["zero_padding2d_8", 0, 0, {}]]], "name": "conv4_1_3x3"}, {"class_name": "BatchNormalization", "config": {"beta_constraint": null, "gamma_initializer": {"class_name": "Ones", "config": {}}, "moving_mean_initializer": {"class_name": "Zeros", "config": {}}, "name": "conv4_1_3x3_bn", "epsilon": 1e-05, "trainable": true, "moving_variance_initializer": {"class_name": "Ones", "config": {}}, "beta_initializer": {"class_name": "Zeros", "config": {}}, "scale": true, "axis": -1, "gamma_constraint": null, "gamma_regularizer": null, "beta_regularizer": null, "momentum": 0.95, "center": true}, "inbound_nodes": [[["conv4_1_3x3", 0, 0, {}]]], "name": "conv4_1_3x3_bn"}, {"class_name": "Activation", "config": {"activation": "relu", "trainable": true, "name": "activation_27"}, "inbound_nodes": [[["conv4_1_3x3_bn", 0, 0, {}]]], "name": "activation_27"}, {"class_name": "Conv2D", "config": {"kernel_constraint": null, "kernel_initializer": {"class_name": "VarianceScaling", "config": {"distribution": "uniform", "scale": 1.0, "seed": null, "mode": "fan_avg"}}, "name": "conv4_1_1x1_increase", "bias_regularizer": null, "bias_constraint": null, "activation": "linear", "trainable": true, "data_format": "channels_last", "padding": "valid", "strides": [1, 1], "dilation_rate": [1, 1], "kernel_regularizer": null, "filters": 1024, "bias_initializer": {"class_name": "Zeros", "config": {}}, "use_bias": false, "activity_regularizer": null, "kernel_size": [1, 1]}, "inbound_nodes": [[["activation_27", 0, 0, {}]]], "name": "conv4_1_1x1_increase"}, {"class_name": "Conv2D", "config": {"kernel_constraint": null, "kernel_initializer": {"class_name": "VarianceScaling", "config": {"distribution": "uniform", "scale": 1.0, "seed": null, "mode": "fan_avg"}}, "name": "conv4_1_1x1_proj", "bias_regularizer": null, "bias_constraint": null, "activation": "linear", "trainable": true, "data_format": "channels_last", "padding": "valid", "strides": [1, 1], "dilation_rate": [1, 1], "kernel_regularizer": null, "filters": 1024, "bias_initializer": {"class_name": "Zeros", "config": {}}, "use_bias": false, "activity_regularizer": null, "kernel_size": [1, 1]}, "inbound_nodes": [[["activation_25", 0, 0, {}]]], "name": "conv4_1_1x1_proj"}, {"class_name": "BatchNormalization", "config": {"beta_constraint": null, "gamma_initializer": {"class_name": "Ones", "config": {}}, "moving_mean_initializer": {"class_name": "Zeros", "config": {}}, "name": "conv4_1_1x1_increase_bn", "epsilon": 1e-05, "trainable": true, "moving_variance_initializer": {"class_name": "Ones", "config": {}}, "beta_initializer": {"class_name": "Zeros", "config": {}}, "scale": true, "axis": -1, "gamma_constraint": null, "gamma_regularizer": null, "beta_regularizer": null, "momentum": 0.95, "center": true}, "inbound_nodes": [[["conv4_1_1x1_increase", 0, 0, {}]]], "name": "conv4_1_1x1_increase_bn"}, {"class_name": "BatchNormalization", "config": {"beta_constraint": null, "gamma_initializer": {"class_name": "Ones", "config": {}}, "moving_mean_initializer": {"class_name": "Zeros", "config": {}}, "name": "conv4_1_1x1_proj_bn", "epsilon": 1e-05, "trainable": true, "moving_variance_initializer": {"class_name": "Ones", "config": {}}, "beta_initializer": {"class_name": "Zeros", "config": {}}, "scale": true, "axis": -1, "gamma_constraint": null, "gamma_regularizer": null, "beta_regularizer": null, "momentum": 0.95, "center": true}, "inbound_nodes": [[["conv4_1_1x1_proj", 0, 0, {}]]], "name": "conv4_1_1x1_proj_bn"}, {"class_name": "Add", "config": {"trainable": true, "name": "add_8"}, "inbound_nodes": [[["conv4_1_1x1_increase_bn", 0, 0, {}], ["conv4_1_1x1_proj_bn", 0, 0, {}]]], "name": "add_8"}, {"class_name": "Activation", "config": {"activation": "relu", "trainable": true, "name": "activation_28"}, "inbound_nodes": [[["add_8", 0, 0, {}]]], "name": "activation_28"}, {"class_name": "Conv2D", "config": {"kernel_constraint": null, "kernel_initializer": {"class_name": "VarianceScaling", "config": {"distribution": "uniform", "scale": 1.0, "seed": null, "mode": "fan_avg"}}, "name": "conv4_2_1x1_reduce", "bias_regularizer": null, "bias_constraint": null, "activation": "linear", "trainable": true, "data_format": "channels_last", "padding": "valid", "strides": [1, 1], "dilation_rate": [1, 1], "kernel_regularizer": null, "filters": 256, "bias_initializer": {"class_name": "Zeros", "config": {}}, "use_bias": false, "activity_regularizer": null, "kernel_size": [1, 1]}, "inbound_nodes": [[["activation_28", 0, 0, {}]]], "name": "conv4_2_1x1_reduce"}, {"class_name": "BatchNormalization", "config": {"beta_constraint": null, "gamma_initializer": {"class_name": "Ones", "config": {}}, "moving_mean_initializer": {"class_name": "Zeros", "config": {}}, "name": "conv4_2_1x1_reduce_bn", "epsilon": 1e-05, "trainable": true, "moving_variance_initializer": {"class_name": "Ones", "config": {}}, "beta_initializer": {"class_name": "Zeros", "config": {}}, "scale": true, "axis": -1, "gamma_constraint": null, "gamma_regularizer": null, "beta_regularizer": null, "momentum": 0.95, "center": true}, "inbound_nodes": [[["conv4_2_1x1_reduce", 0, 0, {}]]], "name": "conv4_2_1x1_reduce_bn"}, {"class_name": "Activation", "config": {"activation": "relu", "trainable": true, "name": "activation_29"}, "inbound_nodes": [[["conv4_2_1x1_reduce_bn", 0, 0, {}]]], "name": "activation_29"}, {"class_name": "ZeroPadding2D", "config": {"padding": [[2, 2], [2, 2]], "trainable": true, "name": "zero_padding2d_9", "data_format": "channels_last"}, "inbound_nodes": [[["activation_29", 0, 0, {}]]], "name": "zero_padding2d_9"}, {"class_name": "Conv2D", "config": {"kernel_constraint": null, "kernel_initializer": {"class_name": "VarianceScaling", "config": {"distribution": "uniform", "scale": 1.0, "seed": null, "mode": "fan_avg"}}, "name": "conv4_2_3x3", "bias_regularizer": null, "bias_constraint": null, "activation": "linear", "trainable": true, "data_format": "channels_last", "padding": "valid", "strides": [1, 1], "dilation_rate": [2, 2], "kernel_regularizer": null, "filters": 256, "bias_initializer": {"class_name": "Zeros", "config": {}}, "use_bias": false, "activity_regularizer": null, "kernel_size": [3, 3]}, "inbound_nodes": [[["zero_padding2d_9", 0, 0, {}]]], "name": "conv4_2_3x3"}, {"class_name": "BatchNormalization", "config": {"beta_constraint": null, "gamma_initializer": {"class_name": "Ones", "config": {}}, "moving_mean_initializer": {"class_name": "Zeros", "config": {}}, "name": "conv4_2_3x3_bn", "epsilon": 1e-05, "trainable": true, "moving_variance_initializer": {"class_name": "Ones", "config": {}}, "beta_initializer": {"class_name": "Zeros", "config": {}}, "scale": true, "axis": -1, "gamma_constraint": null, "gamma_regularizer": null, "beta_regularizer": null, "momentum": 0.95, "center": true}, "inbound_nodes": [[["conv4_2_3x3", 0, 0, {}]]], "name": "conv4_2_3x3_bn"}, {"class_name": "Activation", "config": {"activation": "relu", "trainable": true, "name": "activation_30"}, "inbound_nodes": [[["conv4_2_3x3_bn", 0, 0, {}]]], "name": "activation_30"}, {"class_name": "Conv2D", "config": {"kernel_constraint": null, "kernel_initializer": {"class_name": "VarianceScaling", "config": {"distribution": "uniform", "scale": 1.0, "seed": null, "mode": "fan_avg"}}, "name": "conv4_2_1x1_increase", "bias_regularizer": null, "bias_constraint": null, "activation": "linear", "trainable": true, "data_format": "channels_last", "padding": "valid", "strides": [1, 1], "dilation_rate": [1, 1], "kernel_regularizer": null, "filters": 1024, "bias_initializer": {"class_name": "Zeros", "config": {}}, "use_bias": false, "activity_regularizer": null, "kernel_size": [1, 1]}, "inbound_nodes": [[["activation_30", 0, 0, {}]]], "name": "conv4_2_1x1_increase"}, {"class_name": "BatchNormalization", "config": {"beta_constraint": null, "gamma_initializer": {"class_name": "Ones", "config": {}}, "moving_mean_initializer": {"class_name": "Zeros", "config": {}}, "name": "conv4_2_1x1_increase_bn", "epsilon": 1e-05, "trainable": true, "moving_variance_initializer": {"class_name": "Ones", "config": {}}, "beta_initializer": {"class_name": "Zeros", "config": {}}, "scale": true, "axis": -1, "gamma_constraint": null, "gamma_regularizer": null, "beta_regularizer": null, "momentum": 0.95, "center": true}, "inbound_nodes": [[["conv4_2_1x1_increase", 0, 0, {}]]], "name": "conv4_2_1x1_increase_bn"}, {"class_name": "Add", "config": {"trainable": true, "name": "add_9"}, "inbound_nodes": [[["conv4_2_1x1_increase_bn", 0, 0, {}], ["activation_28", 0, 0, {}]]], "name": "add_9"}, {"class_name": "Activation", "config": {"activation": "relu", "trainable": true, "name": "activation_31"}, "inbound_nodes": [[["add_9", 0, 0, {}]]], "name": "activation_31"}, {"class_name": "Conv2D", "config": {"kernel_constraint": null, "kernel_initializer": {"class_name": "VarianceScaling", "config": {"distribution": "uniform", "scale": 1.0, "seed": null, "mode": "fan_avg"}}, "name": "conv4_3_1x1_reduce", "bias_regularizer": null, "bias_constraint": null, "activation": "linear", "trainable": true, "data_format": "channels_last", "padding": "valid", "strides": [1, 1], "dilation_rate": [1, 1], "kernel_regularizer": null, "filters": 256, "bias_initializer": {"class_name": "Zeros", "config": {}}, "use_bias": false, "activity_regularizer": null, "kernel_size": [1, 1]}, "inbound_nodes": [[["activation_31", 0, 0, {}]]], "name": "conv4_3_1x1_reduce"}, {"class_name": "BatchNormalization", "config": {"beta_constraint": null, "gamma_initializer": {"class_name": "Ones", "config": {}}, "moving_mean_initializer": {"class_name": "Zeros", "config": {}}, "name": "conv4_3_1x1_reduce_bn", "epsilon": 1e-05, "trainable": true, "moving_variance_initializer": {"class_name": "Ones", "config": {}}, "beta_initializer": {"class_name": "Zeros", "config": {}}, "scale": true, "axis": -1, "gamma_constraint": null, "gamma_regularizer": null, "beta_regularizer": null, "momentum": 0.95, "center": true}, "inbound_nodes": [[["conv4_3_1x1_reduce", 0, 0, {}]]], "name": "conv4_3_1x1_reduce_bn"}, {"class_name": "Activation", "config": {"activation": "relu", "trainable": true, "name": "activation_32"}, "inbound_nodes": [[["conv4_3_1x1_reduce_bn", 0, 0, {}]]], "name": "activation_32"}, {"class_name": "ZeroPadding2D", "config": {"padding": [[2, 2], [2, 2]], "trainable": true, "name": "zero_padding2d_10", "data_format": "channels_last"}, "inbound_nodes": [[["activation_32", 0, 0, {}]]], "name": "zero_padding2d_10"}, {"class_name": "Conv2D", "config": {"kernel_constraint": null, "kernel_initializer": {"class_name": "VarianceScaling", "config": {"distribution": "uniform", "scale": 1.0, "seed": null, "mode": "fan_avg"}}, "name": "conv4_3_3x3", "bias_regularizer": null, "bias_constraint": null, "activation": "linear", "trainable": true, "data_format": "channels_last", "padding": "valid", "strides": [1, 1], "dilation_rate": [2, 2], "kernel_regularizer": null, "filters": 256, "bias_initializer": {"class_name": "Zeros", "config": {}}, "use_bias": false, "activity_regularizer": null, "kernel_size": [3, 3]}, "inbound_nodes": [[["zero_padding2d_10", 0, 0, {}]]], "name": "conv4_3_3x3"}, {"class_name": "BatchNormalization", "config": {"beta_constraint": null, "gamma_initializer": {"class_name": "Ones", "config": {}}, "moving_mean_initializer": {"class_name": "Zeros", "config": {}}, "name": "conv4_3_3x3_bn", "epsilon": 1e-05, "trainable": true, "moving_variance_initializer": {"class_name": "Ones", "config": {}}, "beta_initializer": {"class_name": "Zeros", "config": {}}, "scale": true, "axis": -1, "gamma_constraint": null, "gamma_regularizer": null, "beta_regularizer": null, "momentum": 0.95, "center": true}, "inbound_nodes": [[["conv4_3_3x3", 0, 0, {}]]], "name": "conv4_3_3x3_bn"}, {"class_name": "Activation", "config": {"activation": "relu", "trainable": true, "name": "activation_33"}, "inbound_nodes": [[["conv4_3_3x3_bn", 0, 0, {}]]], "name": "activation_33"}, {"class_name": "Conv2D", "config": {"kernel_constraint": null, "kernel_initializer": {"class_name": "VarianceScaling", "config": {"distribution": "uniform", "scale": 1.0, "seed": null, "mode": "fan_avg"}}, "name": "conv4_3_1x1_increase", "bias_regularizer": null, "bias_constraint": null, "activation": "linear", "trainable": true, "data_format": "channels_last", "padding": "valid", "strides": [1, 1], "dilation_rate": [1, 1], "kernel_regularizer": null, "filters": 1024, "bias_initializer": {"class_name": "Zeros", "config": {}}, "use_bias": false, "activity_regularizer": null, "kernel_size": [1, 1]}, "inbound_nodes": [[["activation_33", 0, 0, {}]]], "name": "conv4_3_1x1_increase"}, {"class_name": "BatchNormalization", "config": {"beta_constraint": null, "gamma_initializer": {"class_name": "Ones", "config": {}}, "moving_mean_initializer": {"class_name": "Zeros", "config": {}}, "name": "conv4_3_1x1_increase_bn", "epsilon": 1e-05, "trainable": true, "moving_variance_initializer": {"class_name": "Ones", "config": {}}, "beta_initializer": {"class_name": "Zeros", "config": {}}, "scale": true, "axis": -1, "gamma_constraint": null, "gamma_regularizer": null, "beta_regularizer": null, "momentum": 0.95, "center": true}, "inbound_nodes": [[["conv4_3_1x1_increase", 0, 0, {}]]], "name": "conv4_3_1x1_increase_bn"}, {"class_name": "Add", "config": {"trainable": true, "name": "add_10"}, "inbound_nodes": [[["conv4_3_1x1_increase_bn", 0, 0, {}], ["activation_31", 0, 0, {}]]], "name": "add_10"}, {"class_name": "Activation", "config": {"activation": "relu", "trainable": true, "name": "activation_34"}, "inbound_nodes": [[["add_10", 0, 0, {}]]], "name": "activation_34"}, {"class_name": "Conv2D", "config": {"kernel_constraint": null, "kernel_initializer": {"class_name": "VarianceScaling", "config": {"distribution": "uniform", "scale": 1.0, "seed": null, "mode": "fan_avg"}}, "name": "conv4_4_1x1_reduce", "bias_regularizer": null, "bias_constraint": null, "activation": "linear", "trainable": true, "data_format": "channels_last", "padding": "valid", "strides": [1, 1], "dilation_rate": [1, 1], "kernel_regularizer": null, "filters": 256, "bias_initializer": {"class_name": "Zeros", "config": {}}, "use_bias": false, "activity_regularizer": null, "kernel_size": [1, 1]}, "inbound_nodes": [[["activation_34", 0, 0, {}]]], "name": "conv4_4_1x1_reduce"}, {"class_name": "BatchNormalization", "config": {"beta_constraint": null, "gamma_initializer": {"class_name": "Ones", "config": {}}, "moving_mean_initializer": {"class_name": "Zeros", "config": {}}, "name": "conv4_4_1x1_reduce_bn", "epsilon": 1e-05, "trainable": true, "moving_variance_initializer": {"class_name": "Ones", "config": {}}, "beta_initializer": {"class_name": "Zeros", "config": {}}, "scale": true, "axis": -1, "gamma_constraint": null, "gamma_regularizer": null, "beta_regularizer": null, "momentum": 0.95, "center": true}, "inbound_nodes": [[["conv4_4_1x1_reduce", 0, 0, {}]]], "name": "conv4_4_1x1_reduce_bn"}, {"class_name": "Activation", "config": {"activation": "relu", "trainable": true, "name": "activation_35"}, "inbound_nodes": [[["conv4_4_1x1_reduce_bn", 0, 0, {}]]], "name": "activation_35"}, {"class_name": "ZeroPadding2D", "config": {"padding": [[2, 2], [2, 2]], "trainable": true, "name": "zero_padding2d_11", "data_format": "channels_last"}, "inbound_nodes": [[["activation_35", 0, 0, {}]]], "name": "zero_padding2d_11"}, {"class_name": "Conv2D", "config": {"kernel_constraint": null, "kernel_initializer": {"class_name": "VarianceScaling", "config": {"distribution": "uniform", "scale": 1.0, "seed": null, "mode": "fan_avg"}}, "name": "conv4_4_3x3", "bias_regularizer": null, "bias_constraint": null, "activation": "linear", "trainable": true, "data_format": "channels_last", "padding": "valid", "strides": [1, 1], "dilation_rate": [2, 2], "kernel_regularizer": null, "filters": 256, "bias_initializer": {"class_name": "Zeros", "config": {}}, "use_bias": false, "activity_regularizer": null, "kernel_size": [3, 3]}, "inbound_nodes": [[["zero_padding2d_11", 0, 0, {}]]], "name": "conv4_4_3x3"}, {"class_name": "BatchNormalization", "config": {"beta_constraint": null, "gamma_initializer": {"class_name": "Ones", "config": {}}, "moving_mean_initializer": {"class_name": "Zeros", "config": {}}, "name": "conv4_4_3x3_bn", "epsilon": 1e-05, "trainable": true, "moving_variance_initializer": {"class_name": "Ones", "config": {}}, "beta_initializer": {"class_name": "Zeros", "config": {}}, "scale": true, "axis": -1, "gamma_constraint": null, "gamma_regularizer": null, "beta_regularizer": null, "momentum": 0.95, "center": true}, "inbound_nodes": [[["conv4_4_3x3", 0, 0, {}]]], "name": "conv4_4_3x3_bn"}, {"class_name": "Activation", "config": {"activation": "relu", "trainable": true, "name": "activation_36"}, "inbound_nodes": [[["conv4_4_3x3_bn", 0, 0, {}]]], "name": "activation_36"}, {"class_name": "Conv2D", "config": {"kernel_constraint": null, "kernel_initializer": {"class_name": "VarianceScaling", "config": {"distribution": "uniform", "scale": 1.0, "seed": null, "mode": "fan_avg"}}, "name": "conv4_4_1x1_increase", "bias_regularizer": null, "bias_constraint": null, "activation": "linear", "trainable": true, "data_format": "channels_last", "padding": "valid", "strides": [1, 1], "dilation_rate": [1, 1], "kernel_regularizer": null, "filters": 1024, "bias_initializer": {"class_name": "Zeros", "config": {}}, "use_bias": false, "activity_regularizer": null, "kernel_size": [1, 1]}, "inbound_nodes": [[["activation_36", 0, 0, {}]]], "name": "conv4_4_1x1_increase"}, {"class_name": "BatchNormalization", "config": {"beta_constraint": null, "gamma_initializer": {"class_name": "Ones", "config": {}}, "moving_mean_initializer": {"class_name": "Zeros", "config": {}}, "name": "conv4_4_1x1_increase_bn", "epsilon": 1e-05, "trainable": true, "moving_variance_initializer": {"class_name": "Ones", "config": {}}, "beta_initializer": {"class_name": "Zeros", "config": {}}, "scale": true, "axis": -1, "gamma_constraint": null, "gamma_regularizer": null, "beta_regularizer": null, "momentum": 0.95, "center": true}, "inbound_nodes": [[["conv4_4_1x1_increase", 0, 0, {}]]], "name": "conv4_4_1x1_increase_bn"}, {"class_name": "Add", "config": {"trainable": true, "name": "add_11"}, "inbound_nodes": [[["conv4_4_1x1_increase_bn", 0, 0, {}], ["activation_34", 0, 0, {}]]], "name": "add_11"}, {"class_name": "Activation", "config": {"activation": "relu", "trainable": true, "name": "activation_37"}, "inbound_nodes": [[["add_11", 0, 0, {}]]], "name": "activation_37"}, {"class_name": "Conv2D", "config": {"kernel_constraint": null, "kernel_initializer": {"class_name": "VarianceScaling", "config": {"distribution": "uniform", "scale": 1.0, "seed": null, "mode": "fan_avg"}}, "name": "conv4_5_1x1_reduce", "bias_regularizer": null, "bias_constraint": null, "activation": "linear", "trainable": true, "data_format": "channels_last", "padding": "valid", "strides": [1, 1], "dilation_rate": [1, 1], "kernel_regularizer": null, "filters": 256, "bias_initializer": {"class_name": "Zeros", "config": {}}, "use_bias": false, "activity_regularizer": null, "kernel_size": [1, 1]}, "inbound_nodes": [[["activation_37", 0, 0, {}]]], "name": "conv4_5_1x1_reduce"}, {"class_name": "BatchNormalization", "config": {"beta_constraint": null, "gamma_initializer": {"class_name": "Ones", "config": {}}, "moving_mean_initializer": {"class_name": "Zeros", "config": {}}, "name": "conv4_5_1x1_reduce_bn", "epsilon": 1e-05, "trainable": true, "moving_variance_initializer": {"class_name": "Ones", "config": {}}, "beta_initializer": {"class_name": "Zeros", "config": {}}, "scale": true, "axis": -1, "gamma_constraint": null, "gamma_regularizer": null, "beta_regularizer": null, "momentum": 0.95, "center": true}, "inbound_nodes": [[["conv4_5_1x1_reduce", 0, 0, {}]]], "name": "conv4_5_1x1_reduce_bn"}, {"class_name": "Activation", "config": {"activation": "relu", "trainable": true, "name": "activation_38"}, "inbound_nodes": [[["conv4_5_1x1_reduce_bn", 0, 0, {}]]], "name": "activation_38"}, {"class_name": "ZeroPadding2D", "config": {"padding": [[2, 2], [2, 2]], "trainable": true, "name": "zero_padding2d_12", "data_format": "channels_last"}, "inbound_nodes": [[["activation_38", 0, 0, {}]]], "name": "zero_padding2d_12"}, {"class_name": "Conv2D", "config": {"kernel_constraint": null, "kernel_initializer": {"class_name": "VarianceScaling", "config": {"distribution": "uniform", "scale": 1.0, "seed": null, "mode": "fan_avg"}}, "name": "conv4_5_3x3", "bias_regularizer": null, "bias_constraint": null, "activation": "linear", "trainable": true, "data_format": "channels_last", "padding": "valid", "strides": [1, 1], "dilation_rate": [2, 2], "kernel_regularizer": null, "filters": 256, "bias_initializer": {"class_name": "Zeros", "config": {}}, "use_bias": false, "activity_regularizer": null, "kernel_size": [3, 3]}, "inbound_nodes": [[["zero_padding2d_12", 0, 0, {}]]], "name": "conv4_5_3x3"}, {"class_name": "BatchNormalization", "config": {"beta_constraint": null, "gamma_initializer": {"class_name": "Ones", "config": {}}, "moving_mean_initializer": {"class_name": "Zeros", "config": {}}, "name": "conv4_5_3x3_bn", "epsilon": 1e-05, "trainable": true, "moving_variance_initializer": {"class_name": "Ones", "config": {}}, "beta_initializer": {"class_name": "Zeros", "config": {}}, "scale": true, "axis": -1, "gamma_constraint": null, "gamma_regularizer": null, "beta_regularizer": null, "momentum": 0.95, "center": true}, "inbound_nodes": [[["conv4_5_3x3", 0, 0, {}]]], "name": "conv4_5_3x3_bn"}, {"class_name": "Activation", "config": {"activation": "relu", "trainable": true, "name": "activation_39"}, "inbound_nodes": [[["conv4_5_3x3_bn", 0, 0, {}]]], "name": "activation_39"}, {"class_name": "Conv2D", "config": {"kernel_constraint": null, "kernel_initializer": {"class_name": "VarianceScaling", "config": {"distribution": "uniform", "scale": 1.0, "seed": null, "mode": "fan_avg"}}, "name": "conv4_5_1x1_increase", "bias_regularizer": null, "bias_constraint": null, "activation": "linear", "trainable": true, "data_format": "channels_last", "padding": "valid", "strides": [1, 1], "dilation_rate": [1, 1], "kernel_regularizer": null, "filters": 1024, "bias_initializer": {"class_name": "Zeros", "config": {}}, "use_bias": false, "activity_regularizer": null, "kernel_size": [1, 1]}, "inbound_nodes": [[["activation_39", 0, 0, {}]]], "name": "conv4_5_1x1_increase"}, {"class_name": "BatchNormalization", "config": {"beta_constraint": null, "gamma_initializer": {"class_name": "Ones", "config": {}}, "moving_mean_initializer": {"class_name": "Zeros", "config": {}}, "name": "conv4_5_1x1_increase_bn", "epsilon": 1e-05, "trainable": true, "moving_variance_initializer": {"class_name": "Ones", "config": {}}, "beta_initializer": {"class_name": "Zeros", "config": {}}, "scale": true, "axis": -1, "gamma_constraint": null, "gamma_regularizer": null, "beta_regularizer": null, "momentum": 0.95, "center": true}, "inbound_nodes": [[["conv4_5_1x1_increase", 0, 0, {}]]], "name": "conv4_5_1x1_increase_bn"}, {"class_name": "Add", "config": {"trainable": true, "name": "add_12"}, "inbound_nodes": [[["conv4_5_1x1_increase_bn", 0, 0, {}], ["activation_37", 0, 0, {}]]], "name": "add_12"}, {"class_name": "Activation", "config": {"activation": "relu", "trainable": true, "name": "activation_40"}, "inbound_nodes": [[["add_12", 0, 0, {}]]], "name": "activation_40"}, {"class_name": "Conv2D", "config": {"kernel_constraint": null, "kernel_initializer": {"class_name": "VarianceScaling", "config": {"distribution": "uniform", "scale": 1.0, "seed": null, "mode": "fan_avg"}}, "name": "conv4_6_1x1_reduce", "bias_regularizer": null, "bias_constraint": null, "activation": "linear", "trainable": true, "data_format": "channels_last", "padding": "valid", "strides": [1, 1], "dilation_rate": [1, 1], "kernel_regularizer": null, "filters": 256, "bias_initializer": {"class_name": "Zeros", "config": {}}, "use_bias": false, "activity_regularizer": null, "kernel_size": [1, 1]}, "inbound_nodes": [[["activation_40", 0, 0, {}]]], "name": "conv4_6_1x1_reduce"}, {"class_name": "BatchNormalization", "config": {"beta_constraint": null, "gamma_initializer": {"class_name": "Ones", "config": {}}, "moving_mean_initializer": {"class_name": "Zeros", "config": {}}, "name": "conv4_6_1x1_reduce_bn", "epsilon": 1e-05, "trainable": true, "moving_variance_initializer": {"class_name": "Ones", "config": {}}, "beta_initializer": {"class_name": "Zeros", "config": {}}, "scale": true, "axis": -1, "gamma_constraint": null, "gamma_regularizer": null, "beta_regularizer": null, "momentum": 0.95, "center": true}, "inbound_nodes": [[["conv4_6_1x1_reduce", 0, 0, {}]]], "name": "conv4_6_1x1_reduce_bn"}, {"class_name": "Activation", "config": {"activation": "relu", "trainable": true, "name": "activation_41"}, "inbound_nodes": [[["conv4_6_1x1_reduce_bn", 0, 0, {}]]], "name": "activation_41"}, {"class_name": "ZeroPadding2D", "config": {"padding": [[2, 2], [2, 2]], "trainable": true, "name": "zero_padding2d_13", "data_format": "channels_last"}, "inbound_nodes": [[["activation_41", 0, 0, {}]]], "name": "zero_padding2d_13"}, {"class_name": "Conv2D", "config": {"kernel_constraint": null, "kernel_initializer": {"class_name": "VarianceScaling", "config": {"distribution": "uniform", "scale": 1.0, "seed": null, "mode": "fan_avg"}}, "name": "conv4_6_3x3", "bias_regularizer": null, "bias_constraint": null, "activation": "linear", "trainable": true, "data_format": "channels_last", "padding": "valid", "strides": [1, 1], "dilation_rate": [2, 2], "kernel_regularizer": null, "filters": 256, "bias_initializer": {"class_name": "Zeros", "config": {}}, "use_bias": false, "activity_regularizer": null, "kernel_size": [3, 3]}, "inbound_nodes": [[["zero_padding2d_13", 0, 0, {}]]], "name": "conv4_6_3x3"}, {"class_name": "BatchNormalization", "config": {"beta_constraint": null, "gamma_initializer": {"class_name": "Ones", "config": {}}, "moving_mean_initializer": {"class_name": "Zeros", "config": {}}, "name": "conv4_6_3x3_bn", "epsilon": 1e-05, "trainable": true, "moving_variance_initializer": {"class_name": "Ones", "config": {}}, "beta_initializer": {"class_name": "Zeros", "config": {}}, "scale": true, "axis": -1, "gamma_constraint": null, "gamma_regularizer": null, "beta_regularizer": null, "momentum": 0.95, "center": true}, "inbound_nodes": [[["conv4_6_3x3", 0, 0, {}]]], "name": "conv4_6_3x3_bn"}, {"class_name": "Activation", "config": {"activation": "relu", "trainable": true, "name": "activation_42"}, "inbound_nodes": [[["conv4_6_3x3_bn", 0, 0, {}]]], "name": "activation_42"}, {"class_name": "Conv2D", "config": {"kernel_constraint": null, "kernel_initializer": {"class_name": "VarianceScaling", "config": {"distribution": "uniform", "scale": 1.0, "seed": null, "mode": "fan_avg"}}, "name": "conv4_6_1x1_increase", "bias_regularizer": null, "bias_constraint": null, "activation": "linear", "trainable": true, "data_format": "channels_last", "padding": "valid", "strides": [1, 1], "dilation_rate": [1, 1], "kernel_regularizer": null, "filters": 1024, "bias_initializer": {"class_name": "Zeros", "config": {}}, "use_bias": false, "activity_regularizer": null, "kernel_size": [1, 1]}, "inbound_nodes": [[["activation_42", 0, 0, {}]]], "name": "conv4_6_1x1_increase"}, {"class_name": "BatchNormalization", "config": {"beta_constraint": null, "gamma_initializer": {"class_name": "Ones", "config": {}}, "moving_mean_initializer": {"class_name": "Zeros", "config": {}}, "name": "conv4_6_1x1_increase_bn", "epsilon": 1e-05, "trainable": true, "moving_variance_initializer": {"class_name": "Ones", "config": {}}, "beta_initializer": {"class_name": "Zeros", "config": {}}, "scale": true, "axis": -1, "gamma_constraint": null, "gamma_regularizer": null, "beta_regularizer": null, "momentum": 0.95, "center": true}, "inbound_nodes": [[["conv4_6_1x1_increase", 0, 0, {}]]], "name": "conv4_6_1x1_increase_bn"}, {"class_name": "Add", "config": {"trainable": true, "name": "add_13"}, "inbound_nodes": [[["conv4_6_1x1_increase_bn", 0, 0, {}], ["activation_40", 0, 0, {}]]], "name": "add_13"}, {"class_name": "Activation", "config": {"activation": "relu", "trainable": true, "name": "activation_43"}, "inbound_nodes": [[["add_13", 0, 0, {}]]], "name": "activation_43"}, {"class_name": "Conv2D", "config": {"kernel_constraint": null, "kernel_initializer": {"class_name": "VarianceScaling", "config": {"distribution": "uniform", "scale": 1.0, "seed": null, "mode": "fan_avg"}}, "name": "conv5_1_1x1_reduce", "bias_regularizer": null, "bias_constraint": null, "activation": "linear", "trainable": true, "data_format": "channels_last", "padding": "valid", "strides": [1, 1], "dilation_rate": [1, 1], "kernel_regularizer": null, "filters": 512, "bias_initializer": {"class_name": "Zeros", "config": {}}, "use_bias": false, "activity_regularizer": null, "kernel_size": [1, 1]}, "inbound_nodes": [[["activation_43", 0, 0, {}]]], "name": "conv5_1_1x1_reduce"}, {"class_name": "BatchNormalization", "config": {"beta_constraint": null, "gamma_initializer": {"class_name": "Ones", "config": {}}, "moving_mean_initializer": {"class_name": "Zeros", "config": {}}, "name": "conv5_1_1x1_reduce_bn", "epsilon": 1e-05, "trainable": true, "moving_variance_initializer": {"class_name": "Ones", "config": {}}, "beta_initializer": {"class_name": "Zeros", "config": {}}, "scale": true, "axis": -1, "gamma_constraint": null, "gamma_regularizer": null, "beta_regularizer": null, "momentum": 0.95, "center": true}, "inbound_nodes": [[["conv5_1_1x1_reduce", 0, 0, {}]]], "name": "conv5_1_1x1_reduce_bn"}, {"class_name": "Activation", "config": {"activation": "relu", "trainable": true, "name": "activation_44"}, "inbound_nodes": [[["conv5_1_1x1_reduce_bn", 0, 0, {}]]], "name": "activation_44"}, {"class_name": "ZeroPadding2D", "config": {"padding": [[4, 4], [4, 4]], "trainable": true, "name": "zero_padding2d_14", "data_format": "channels_last"}, "inbound_nodes": [[["activation_44", 0, 0, {}]]], "name": "zero_padding2d_14"}, {"class_name": "Conv2D", "config": {"kernel_constraint": null, "kernel_initializer": {"class_name": "VarianceScaling", "config": {"distribution": "uniform", "scale": 1.0, "seed": null, "mode": "fan_avg"}}, "name": "conv5_1_3x3", "bias_regularizer": null, "bias_constraint": null, "activation": "linear", "trainable": true, "data_format": "channels_last", "padding": "valid", "strides": [1, 1], "dilation_rate": [4, 4], "kernel_regularizer": null, "filters": 512, "bias_initializer": {"class_name": "Zeros", "config": {}}, "use_bias": false, "activity_regularizer": null, "kernel_size": [3, 3]}, "inbound_nodes": [[["zero_padding2d_14", 0, 0, {}]]], "name": "conv5_1_3x3"}, {"class_name": "BatchNormalization", "config": {"beta_constraint": null, "gamma_initializer": {"class_name": "Ones", "config": {}}, "moving_mean_initializer": {"class_name": "Zeros", "config": {}}, "name": "conv5_1_3x3_bn", "epsilon": 1e-05, "trainable": true, "moving_variance_initializer": {"class_name": "Ones", "config": {}}, "beta_initializer": {"class_name": "Zeros", "config": {}}, "scale": true, "axis": -1, "gamma_constraint": null, "gamma_regularizer": null, "beta_regularizer": null, "momentum": 0.95, "center": true}, "inbound_nodes": [[["conv5_1_3x3", 0, 0, {}]]], "name": "conv5_1_3x3_bn"}, {"class_name": "Activation", "config": {"activation": "relu", "trainable": true, "name": "activation_45"}, "inbound_nodes": [[["conv5_1_3x3_bn", 0, 0, {}]]], "name": "activation_45"}, {"class_name": "Conv2D", "config": {"kernel_constraint": null, "kernel_initializer": {"class_name": "VarianceScaling", "config": {"distribution": "uniform", "scale": 1.0, "seed": null, "mode": "fan_avg"}}, "name": "conv5_1_1x1_increase", "bias_regularizer": null, "bias_constraint": null, "activation": "linear", "trainable": true, "data_format": "channels_last", "padding": "valid", "strides": [1, 1], "dilation_rate": [1, 1], "kernel_regularizer": null, "filters": 2048, "bias_initializer": {"class_name": "Zeros", "config": {}}, "use_bias": false, "activity_regularizer": null, "kernel_size": [1, 1]}, "inbound_nodes": [[["activation_45", 0, 0, {}]]], "name": "conv5_1_1x1_increase"}, {"class_name": "Conv2D", "config": {"kernel_constraint": null, "kernel_initializer": {"class_name": "VarianceScaling", "config": {"distribution": "uniform", "scale": 1.0, "seed": null, "mode": "fan_avg"}}, "name": "conv5_1_1x1_proj", "bias_regularizer": null, "bias_constraint": null, "activation": "linear", "trainable": true, "data_format": "channels_last", "padding": "valid", "strides": [1, 1], "dilation_rate": [1, 1], "kernel_regularizer": null, "filters": 2048, "bias_initializer": {"class_name": "Zeros", "config": {}}, "use_bias": false, "activity_regularizer": null, "kernel_size": [1, 1]}, "inbound_nodes": [[["activation_43", 0, 0, {}]]], "name": "conv5_1_1x1_proj"}, {"class_name": "BatchNormalization", "config": {"beta_constraint": null, "gamma_initializer": {"class_name": "Ones", "config": {}}, "moving_mean_initializer": {"class_name": "Zeros", "config": {}}, "name": "conv5_1_1x1_increase_bn", "epsilon": 1e-05, "trainable": true, "moving_variance_initializer": {"class_name": "Ones", "config": {}}, "beta_initializer": {"class_name": "Zeros", "config": {}}, "scale": true, "axis": -1, "gamma_constraint": null, "gamma_regularizer": null, "beta_regularizer": null, "momentum": 0.95, "center": true}, "inbound_nodes": [[["conv5_1_1x1_increase", 0, 0, {}]]], "name": "conv5_1_1x1_increase_bn"}, {"class_name": "BatchNormalization", "config": {"beta_constraint": null, "gamma_initializer": {"class_name": "Ones", "config": {}}, "moving_mean_initializer": {"class_name": "Zeros", "config": {}}, "name": "conv5_1_1x1_proj_bn", "epsilon": 1e-05, "trainable": true, "moving_variance_initializer": {"class_name": "Ones", "config": {}}, "beta_initializer": {"class_name": "Zeros", "config": {}}, "scale": true, "axis": -1, "gamma_constraint": null, "gamma_regularizer": null, "beta_regularizer": null, "momentum": 0.95, "center": true}, "inbound_nodes": [[["conv5_1_1x1_proj", 0, 0, {}]]], "name": "conv5_1_1x1_proj_bn"}, {"class_name": "Add", "config": {"trainable": true, "name": "add_14"}, "inbound_nodes": [[["conv5_1_1x1_increase_bn", 0, 0, {}], ["conv5_1_1x1_proj_bn", 0, 0, {}]]], "name": "add_14"}, {"class_name": "Activation", "config": {"activation": "relu", "trainable": true, "name": "activation_46"}, "inbound_nodes": [[["add_14", 0, 0, {}]]], "name": "activation_46"}, {"class_name": "Conv2D", "config": {"kernel_constraint": null, "kernel_initializer": {"class_name": "VarianceScaling", "config": {"distribution": "uniform", "scale": 1.0, "seed": null, "mode": "fan_avg"}}, "name": "conv5_2_1x1_reduce", "bias_regularizer": null, "bias_constraint": null, "activation": "linear", "trainable": true, "data_format": "channels_last", "padding": "valid", "strides": [1, 1], "dilation_rate": [1, 1], "kernel_regularizer": null, "filters": 512, "bias_initializer": {"class_name": "Zeros", "config": {}}, "use_bias": false, "activity_regularizer": null, "kernel_size": [1, 1]}, "inbound_nodes": [[["activation_46", 0, 0, {}]]], "name": "conv5_2_1x1_reduce"}, {"class_name": "BatchNormalization", "config": {"beta_constraint": null, "gamma_initializer": {"class_name": "Ones", "config": {}}, "moving_mean_initializer": {"class_name": "Zeros", "config": {}}, "name": "conv5_2_1x1_reduce_bn", "epsilon": 1e-05, "trainable": true, "moving_variance_initializer": {"class_name": "Ones", "config": {}}, "beta_initializer": {"class_name": "Zeros", "config": {}}, "scale": true, "axis": -1, "gamma_constraint": null, "gamma_regularizer": null, "beta_regularizer": null, "momentum": 0.95, "center": true}, "inbound_nodes": [[["conv5_2_1x1_reduce", 0, 0, {}]]], "name": "conv5_2_1x1_reduce_bn"}, {"class_name": "Activation", "config": {"activation": "relu", "trainable": true, "name": "activation_47"}, "inbound_nodes": [[["conv5_2_1x1_reduce_bn", 0, 0, {}]]], "name": "activation_47"}, {"class_name": "ZeroPadding2D", "config": {"padding": [[4, 4], [4, 4]], "trainable": true, "name": "zero_padding2d_15", "data_format": "channels_last"}, "inbound_nodes": [[["activation_47", 0, 0, {}]]], "name": "zero_padding2d_15"}, {"class_name": "Conv2D", "config": {"kernel_constraint": null, "kernel_initializer": {"class_name": "VarianceScaling", "config": {"distribution": "uniform", "scale": 1.0, "seed": null, "mode": "fan_avg"}}, "name": "conv5_2_3x3", "bias_regularizer": null, "bias_constraint": null, "activation": "linear", "trainable": true, "data_format": "channels_last", "padding": "valid", "strides": [1, 1], "dilation_rate": [4, 4], "kernel_regularizer": null, "filters": 512, "bias_initializer": {"class_name": "Zeros", "config": {}}, "use_bias": false, "activity_regularizer": null, "kernel_size": [3, 3]}, "inbound_nodes": [[["zero_padding2d_15", 0, 0, {}]]], "name": "conv5_2_3x3"}, {"class_name": "BatchNormalization", "config": {"beta_constraint": null, "gamma_initializer": {"class_name": "Ones", "config": {}}, "moving_mean_initializer": {"class_name": "Zeros", "config": {}}, "name": "conv5_2_3x3_bn", "epsilon": 1e-05, "trainable": true, "moving_variance_initializer": {"class_name": "Ones", "config": {}}, "beta_initializer": {"class_name": "Zeros", "config": {}}, "scale": true, "axis": -1, "gamma_constraint": null, "gamma_regularizer": null, "beta_regularizer": null, "momentum": 0.95, "center": true}, "inbound_nodes": [[["conv5_2_3x3", 0, 0, {}]]], "name": "conv5_2_3x3_bn"}, {"class_name": "Activation", "config": {"activation": "relu", "trainable": true, "name": "activation_48"}, "inbound_nodes": [[["conv5_2_3x3_bn", 0, 0, {}]]], "name": "activation_48"}, {"class_name": "Conv2D", "config": {"kernel_constraint": null, "kernel_initializer": {"class_name": "VarianceScaling", "config": {"distribution": "uniform", "scale": 1.0, "seed": null, "mode": "fan_avg"}}, "name": "conv5_2_1x1_increase", "bias_regularizer": null, "bias_constraint": null, "activation": "linear", "trainable": true, "data_format": "channels_last", "padding": "valid", "strides": [1, 1], "dilation_rate": [1, 1], "kernel_regularizer": null, "filters": 2048, "bias_initializer": {"class_name": "Zeros", "config": {}}, "use_bias": false, "activity_regularizer": null, "kernel_size": [1, 1]}, "inbound_nodes": [[["activation_48", 0, 0, {}]]], "name": "conv5_2_1x1_increase"}, {"class_name": "BatchNormalization", "config": {"beta_constraint": null, "gamma_initializer": {"class_name": "Ones", "config": {}}, "moving_mean_initializer": {"class_name": "Zeros", "config": {}}, "name": "conv5_2_1x1_increase_bn", "epsilon": 1e-05, "trainable": true, "moving_variance_initializer": {"class_name": "Ones", "config": {}}, "beta_initializer": {"class_name": "Zeros", "config": {}}, "scale": true, "axis": -1, "gamma_constraint": null, "gamma_regularizer": null, "beta_regularizer": null, "momentum": 0.95, "center": true}, "inbound_nodes": [[["conv5_2_1x1_increase", 0, 0, {}]]], "name": "conv5_2_1x1_increase_bn"}, {"class_name": "Add", "config": {"trainable": true, "name": "add_15"}, "inbound_nodes": [[["conv5_2_1x1_increase_bn", 0, 0, {}], ["activation_46", 0, 0, {}]]], "name": "add_15"}, {"class_name": "Activation", "config": {"activation": "relu", "trainable": true, "name": "activation_49"}, "inbound_nodes": [[["add_15", 0, 0, {}]]], "name": "activation_49"}, {"class_name": "Conv2D", "config": {"kernel_constraint": null, "kernel_initializer": {"class_name": "VarianceScaling", "config": {"distribution": "uniform", "scale": 1.0, "seed": null, "mode": "fan_avg"}}, "name": "conv5_3_1x1_reduce", "bias_regularizer": null, "bias_constraint": null, "activation": "linear", "trainable": true, "data_format": "channels_last", "padding": "valid", "strides": [1, 1], "dilation_rate": [1, 1], "kernel_regularizer": null, "filters": 512, "bias_initializer": {"class_name": "Zeros", "config": {}}, "use_bias": false, "activity_regularizer": null, "kernel_size": [1, 1]}, "inbound_nodes": [[["activation_49", 0, 0, {}]]], "name": "conv5_3_1x1_reduce"}, {"class_name": "BatchNormalization", "config": {"beta_constraint": null, "gamma_initializer": {"class_name": "Ones", "config": {}}, "moving_mean_initializer": {"class_name": "Zeros", "config": {}}, "name": "conv5_3_1x1_reduce_bn", "epsilon": 1e-05, "trainable": true, "moving_variance_initializer": {"class_name": "Ones", "config": {}}, "beta_initializer": {"class_name": "Zeros", "config": {}}, "scale": true, "axis": -1, "gamma_constraint": null, "gamma_regularizer": null, "beta_regularizer": null, "momentum": 0.95, "center": true}, "inbound_nodes": [[["conv5_3_1x1_reduce", 0, 0, {}]]], "name": "conv5_3_1x1_reduce_bn"}, {"class_name": "Activation", "config": {"activation": "relu", "trainable": true, "name": "activation_50"}, "inbound_nodes": [[["conv5_3_1x1_reduce_bn", 0, 0, {}]]], "name": "activation_50"}, {"class_name": "ZeroPadding2D", "config": {"padding": [[4, 4], [4, 4]], "trainable": true, "name": "zero_padding2d_16", "data_format": "channels_last"}, "inbound_nodes": [[["activation_50", 0, 0, {}]]], "name": "zero_padding2d_16"}, {"class_name": "Conv2D", "config": {"kernel_constraint": null, "kernel_initializer": {"class_name": "VarianceScaling", "config": {"distribution": "uniform", "scale": 1.0, "seed": null, "mode": "fan_avg"}}, "name": "conv5_3_3x3", "bias_regularizer": null, "bias_constraint": null, "activation": "linear", "trainable": true, "data_format": "channels_last", "padding": "valid", "strides": [1, 1], "dilation_rate": [4, 4], "kernel_regularizer": null, "filters": 512, "bias_initializer": {"class_name": "Zeros", "config": {}}, "use_bias": false, "activity_regularizer": null, "kernel_size": [3, 3]}, "inbound_nodes": [[["zero_padding2d_16", 0, 0, {}]]], "name": "conv5_3_3x3"}, {"class_name": "BatchNormalization", "config": {"beta_constraint": null, "gamma_initializer": {"class_name": "Ones", "config": {}}, "moving_mean_initializer": {"class_name": "Zeros", "config": {}}, "name": "conv5_3_3x3_bn", "epsilon": 1e-05, "trainable": true, "moving_variance_initializer": {"class_name": "Ones", "config": {}}, "beta_initializer": {"class_name": "Zeros", "config": {}}, "scale": true, "axis": -1, "gamma_constraint": null, "gamma_regularizer": null, "beta_regularizer": null, "momentum": 0.95, "center": true}, "inbound_nodes": [[["conv5_3_3x3", 0, 0, {}]]], "name": "conv5_3_3x3_bn"}, {"class_name": "Activation", "config": {"activation": "relu", "trainable": true, "name": "activation_51"}, "inbound_nodes": [[["conv5_3_3x3_bn", 0, 0, {}]]], "name": "activation_51"}, {"class_name": "Conv2D", "config": {"kernel_constraint": null, "kernel_initializer": {"class_name": "VarianceScaling", "config": {"distribution": "uniform", "scale": 1.0, "seed": null, "mode": "fan_avg"}}, "name": "conv5_3_1x1_increase", "bias_regularizer": null, "bias_constraint": null, "activation": "linear", "trainable": true, "data_format": "channels_last", "padding": "valid", "strides": [1, 1], "dilation_rate": [1, 1], "kernel_regularizer": null, "filters": 2048, "bias_initializer": {"class_name": "Zeros", "config": {}}, "use_bias": false, "activity_regularizer": null, "kernel_size": [1, 1]}, "inbound_nodes": [[["activation_51", 0, 0, {}]]], "name": "conv5_3_1x1_increase"}, {"class_name": "BatchNormalization", "config": {"beta_constraint": null, "gamma_initializer": {"class_name": "Ones", "config": {}}, "moving_mean_initializer": {"class_name": "Zeros", "config": {}}, "name": "conv5_3_1x1_increase_bn", "epsilon": 1e-05, "trainable": true, "moving_variance_initializer": {"class_name": "Ones", "config": {}}, "beta_initializer": {"class_name": "Zeros", "config": {}}, "scale": true, "axis": -1, "gamma_constraint": null, "gamma_regularizer": null, "beta_regularizer": null, "momentum": 0.95, "center": true}, "inbound_nodes": [[["conv5_3_1x1_increase", 0, 0, {}]]], "name": "conv5_3_1x1_increase_bn"}, {"class_name": "Add", "config": {"trainable": true, "name": "add_16"}, "inbound_nodes": [[["conv5_3_1x1_increase_bn", 0, 0, {}], ["activation_49", 0, 0, {}]]], "name": "add_16"}, {"class_name": "Activation", "config": {"activation": "relu", "trainable": true, "name": "activation_52"}, "inbound_nodes": [[["add_16", 0, 0, {}]]], "name": "activation_52"}, {"class_name": "AveragePooling2D", "config": {"name": "average_pooling2d_4", "trainable": true, "data_format": "channels_last", "pool_size": [10, 10], "padding": "valid", "strides": [10, 10]}, "inbound_nodes": [[["activation_52", 0, 0, {}]]], "name": "average_pooling2d_4"}, {"class_name": "AveragePooling2D", "config": {"name": "average_pooling2d_3", "trainable": true, "data_format": "channels_last", "pool_size": [20, 20], "padding": "valid", "strides": [20, 20]}, "inbound_nodes": [[["activation_52", 0, 0, {}]]], "name": "average_pooling2d_3"}, {"class_name": "AveragePooling2D", "config": {"name": "average_pooling2d_2", "trainable": true, "data_format": "channels_last", "pool_size": [30, 30], "padding": "valid", "strides": [30, 30]}, "inbound_nodes": [[["activation_52", 0, 0, {}]]], "name": "average_pooling2d_2"}, {"class_name": "AveragePooling2D", "config": {"name": "average_pooling2d_1", "trainable": true, "data_format": "channels_last", "pool_size": [60, 60], "padding": "valid", "strides": [60, 60]}, "inbound_nodes": [[["activation_52", 0, 0, {}]]], "name": "average_pooling2d_1"}, {"class_name": "Conv2D", "config": {"kernel_constraint": null, "kernel_initializer": {"class_name": "VarianceScaling", "config": {"distribution": "uniform", "scale": 1.0, "seed": null, "mode": "fan_avg"}}, "name": "conv5_3_pool6_conv", "bias_regularizer": null, "bias_constraint": null, "activation": "linear", "trainable": true, "data_format": "channels_last", "padding": "valid", "strides": [1, 1], "dilation_rate": [1, 1], "kernel_regularizer": null, "filters": 512, "bias_initializer": {"class_name": "Zeros", "config": {}}, "use_bias": false, "activity_regularizer": null, "kernel_size": [1, 1]}, "inbound_nodes": [[["average_pooling2d_4", 0, 0, {}]]], "name": "conv5_3_pool6_conv"}, {"class_name": "Conv2D", "config": {"kernel_constraint": null, "kernel_initializer": {"class_name": "VarianceScaling", "config": {"distribution": "uniform", "scale": 1.0, "seed": null, "mode": "fan_avg"}}, "name": "conv5_3_pool3_conv", "bias_regularizer": null, "bias_constraint": null, "activation": "linear", "trainable": true, "data_format": "channels_last", "padding": "valid", "strides": [1, 1], "dilation_rate": [1, 1], "kernel_regularizer": null, "filters": 512, "bias_initializer": {"class_name": "Zeros", "config": {}}, "use_bias": false, "activity_regularizer": null, "kernel_size": [1, 1]}, "inbound_nodes": [[["average_pooling2d_3", 0, 0, {}]]], "name": "conv5_3_pool3_conv"}, {"class_name": "Conv2D", "config": {"kernel_constraint": null, "kernel_initializer": {"class_name": "VarianceScaling", "config": {"distribution": "uniform", "scale": 1.0, "seed": null, "mode": "fan_avg"}}, "name": "conv5_3_pool2_conv", "bias_regularizer": null, "bias_constraint": null, "activation": "linear", "trainable": true, "data_format": "channels_last", "padding": "valid", "strides": [1, 1], "dilation_rate": [1, 1], "kernel_regularizer": null, "filters": 512, "bias_initializer": {"class_name": "Zeros", "config": {}}, "use_bias": false, "activity_regularizer": null, "kernel_size": [1, 1]}, "inbound_nodes": [[["average_pooling2d_2", 0, 0, {}]]], "name": "conv5_3_pool2_conv"}, {"class_name": "Conv2D", "config": {"kernel_constraint": null, "kernel_initializer": {"class_name": "VarianceScaling", "config": {"distribution": "uniform", "scale": 1.0, "seed": null, "mode": "fan_avg"}}, "name": "conv5_3_pool1_conv", "bias_regularizer": null, "bias_constraint": null, "activation": "linear", "trainable": true, "data_format": "channels_last", "padding": "valid", "strides": [1, 1], "dilation_rate": [1, 1], "kernel_regularizer": null, "filters": 512, "bias_initializer": {"class_name": "Zeros", "config": {}}, "use_bias": false, "activity_regularizer": null, "kernel_size": [1, 1]}, "inbound_nodes": [[["average_pooling2d_1", 0, 0, {}]]], "name": "conv5_3_pool1_conv"}, {"class_name": "BatchNormalization", "config": {"beta_constraint": null, "gamma_initializer": {"class_name": "Ones", "config": {}}, "moving_mean_initializer": {"class_name": "Zeros", "config": {}}, "name": "conv5_3_pool6_conv_bn", "epsilon": 1e-05, "trainable": true, "moving_variance_initializer": {"class_name": "Ones", "config": {}}, "beta_initializer": {"class_name": "Zeros", "config": {}}, "scale": true, "axis": -1, "gamma_constraint": null, "gamma_regularizer": null, "beta_regularizer": null, "momentum": 0.95, "center": true}, "inbound_nodes": [[["conv5_3_pool6_conv", 0, 0, {}]]], "name": "conv5_3_pool6_conv_bn"}, {"class_name": "BatchNormalization", "config": {"beta_constraint": null, "gamma_initializer": {"class_name": "Ones", "config": {}}, "moving_mean_initializer": {"class_name": "Zeros", "config": {}}, "name": "conv5_3_pool3_conv_bn", "epsilon": 1e-05, "trainable": true, "moving_variance_initializer": {"class_name": "Ones", "config": {}}, "beta_initializer": {"class_name": "Zeros", "config": {}}, "scale": true, "axis": -1, "gamma_constraint": null, "gamma_regularizer": null, "beta_regularizer": null, "momentum": 0.95, "center": true}, "inbound_nodes": [[["conv5_3_pool3_conv", 0, 0, {}]]], "name": "conv5_3_pool3_conv_bn"}, {"class_name": "BatchNormalization", "config": {"beta_constraint": null, "gamma_initializer": {"class_name": "Ones", "config": {}}, "moving_mean_initializer": {"class_name": "Zeros", "config": {}}, "name": "conv5_3_pool2_conv_bn", "epsilon": 1e-05, "trainable": true, "moving_variance_initializer": {"class_name": "Ones", "config": {}}, "beta_initializer": {"class_name": "Zeros", "config": {}}, "scale": true, "axis": -1, "gamma_constraint": null, "gamma_regularizer": null, "beta_regularizer": null, "momentum": 0.95, "center": true}, "inbound_nodes": [[["conv5_3_pool2_conv", 0, 0, {}]]], "name": "conv5_3_pool2_conv_bn"}, {"class_name": "BatchNormalization", "config": {"beta_constraint": null, "gamma_initializer": {"class_name": "Ones", "config": {}}, "moving_mean_initializer": {"class_name": "Zeros", "config": {}}, "name": "conv5_3_pool1_conv_bn", "epsilon": 1e-05, "trainable": true, "moving_variance_initializer": {"class_name": "Ones", "config": {}}, "beta_initializer": {"class_name": "Zeros", "config": {}}, "scale": true, "axis": -1, "gamma_constraint": null, "gamma_regularizer": null, "beta_regularizer": null, "momentum": 0.95, "center": true}, "inbound_nodes": [[["conv5_3_pool1_conv", 0, 0, {}]]], "name": "conv5_3_pool1_conv_bn"}, {"class_name": "Activation", "config": {"activation": "relu", "trainable": true, "name": "activation_56"}, "inbound_nodes": [[["conv5_3_pool6_conv_bn", 0, 0, {}]]], "name": "activation_56"}, {"class_name": "Activation", "config": {"activation": "relu", "trainable": true, "name": "activation_55"}, "inbound_nodes": [[["conv5_3_pool3_conv_bn", 0, 0, {}]]], "name": "activation_55"}, {"class_name": "Activation", "config": {"activation": "relu", "trainable": true, "name": "activation_54"}, "inbound_nodes": [[["conv5_3_pool2_conv_bn", 0, 0, {}]]], "name": "activation_54"}, {"class_name": "Activation", "config": {"activation": "relu", "trainable": true, "name": "activation_53"}, "inbound_nodes": [[["conv5_3_pool1_conv_bn", 0, 0, {}]]], "name": "activation_53"}, {"class_name": "Lambda", "config": {"function": ["c\u0002\u0000\u0000\u0000\u0006\u0000\u0000\u0000\u0005\u0000\u0000\u0000C\u0000\u0001\u0000sA\u0000\u0000\u0000d\u0001\u0000d\u0002\u0000l\u0000\u0000m\u0001\u0000}\u0002\u0000\u0001|\u0001\u0000\\\u0002\u0000}\u0003\u0000}\u0004\u0000|\u0002\u0000j\u0002\u0000j\u0003\u0000|\u0000\u0000|\u0003\u0000|\u0004\u0000g\u0002\u0000d\u0003\u0000t\u0004\u0000\u0083\u0002\u0001}\u0005\u0000|\u0005\u0000S(\u0004\u0000\u0000\u0000Ni\u00ff\u00ff\u00ff\u00ff(\u0001\u0000\u0000\u0000t\u0002\u0000\u0000\u0000tft\r\u0000\u0000\u0000align_corners(\u0005\u0000\u0000\u0000t\r\u0000\u0000\u0000keras.backendR\u0000\u0000\u0000\u0000t\u0005\u0000\u0000\u0000imaget\r\u0000\u0000\u0000resize_imagest\u0004\u0000\u0000\u0000True(\u0006\u0000\u0000\u0000t\u0001\u0000\u0000\u0000xt\u0005\u0000\u0000\u0000shapet\u0003\u0000\u0000\u0000ktft\n\u0000\u0000\u0000new_heightt\t\u0000\u0000\u0000new_widtht\u0007\u0000\u0000\u0000resized(\u0000\u0000\u0000\u0000(\u0000\u0000\u0000\u0000s8\u0000\u0000\u0000/home/guxi/put/PSPNet-Keras-tensorflow/layers_builder.pyt\u0006\u0000\u0000\u0000Interp\u0011\u0000\u0000\u0000s\n\u0000\u0000\u0000\u0000\u0001\u0010\u0001\f\u0001\u0018\u0001\t\u0001", null, null], "name": "lambda_4", "trainable": true, "function_type": "lambda", "arguments": {"shape": [60, 60]}, "output_shape": null, "output_shape_type": "raw"}, "inbound_nodes": [[["activation_56", 0, 0, {}]]], "name": "lambda_4"}, {"class_name": "Lambda", "config": {"function": ["c\u0002\u0000\u0000\u0000\u0006\u0000\u0000\u0000\u0005\u0000\u0000\u0000C\u0000\u0001\u0000sA\u0000\u0000\u0000d\u0001\u0000d\u0002\u0000l\u0000\u0000m\u0001\u0000}\u0002\u0000\u0001|\u0001\u0000\\\u0002\u0000}\u0003\u0000}\u0004\u0000|\u0002\u0000j\u0002\u0000j\u0003\u0000|\u0000\u0000|\u0003\u0000|\u0004\u0000g\u0002\u0000d\u0003\u0000t\u0004\u0000\u0083\u0002\u0001}\u0005\u0000|\u0005\u0000S(\u0004\u0000\u0000\u0000Ni\u00ff\u00ff\u00ff\u00ff(\u0001\u0000\u0000\u0000t\u0002\u0000\u0000\u0000tft\r\u0000\u0000\u0000align_corners(\u0005\u0000\u0000\u0000t\r\u0000\u0000\u0000keras.backendR\u0000\u0000\u0000\u0000t\u0005\u0000\u0000\u0000imaget\r\u0000\u0000\u0000resize_imagest\u0004\u0000\u0000\u0000True(\u0006\u0000\u0000\u0000t\u0001\u0000\u0000\u0000xt\u0005\u0000\u0000\u0000shapet\u0003\u0000\u0000\u0000ktft\n\u0000\u0000\u0000new_heightt\t\u0000\u0000\u0000new_widtht\u0007\u0000\u0000\u0000resized(\u0000\u0000\u0000\u0000(\u0000\u0000\u0000\u0000s8\u0000\u0000\u0000/home/guxi/put/PSPNet-Keras-tensorflow/layers_builder.pyt\u0006\u0000\u0000\u0000Interp\u0011\u0000\u0000\u0000s\n\u0000\u0000\u0000\u0000\u0001\u0010\u0001\f\u0001\u0018\u0001\t\u0001", null, null], "name": "lambda_3", "trainable": true, "function_type": "lambda", "arguments": {"shape": [60, 60]}, "output_shape": null, "output_shape_type": "raw"}, "inbound_nodes": [[["activation_55", 0, 0, {}]]], "name": "lambda_3"}, {"class_name": "Lambda", "config": {"function": ["c\u0002\u0000\u0000\u0000\u0006\u0000\u0000\u0000\u0005\u0000\u0000\u0000C\u0000\u0001\u0000sA\u0000\u0000\u0000d\u0001\u0000d\u0002\u0000l\u0000\u0000m\u0001\u0000}\u0002\u0000\u0001|\u0001\u0000\\\u0002\u0000}\u0003\u0000}\u0004\u0000|\u0002\u0000j\u0002\u0000j\u0003\u0000|\u0000\u0000|\u0003\u0000|\u0004\u0000g\u0002\u0000d\u0003\u0000t\u0004\u0000\u0083\u0002\u0001}\u0005\u0000|\u0005\u0000S(\u0004\u0000\u0000\u0000Ni\u00ff\u00ff\u00ff\u00ff(\u0001\u0000\u0000\u0000t\u0002\u0000\u0000\u0000tft\r\u0000\u0000\u0000align_corners(\u0005\u0000\u0000\u0000t\r\u0000\u0000\u0000keras.backendR\u0000\u0000\u0000\u0000t\u0005\u0000\u0000\u0000imaget\r\u0000\u0000\u0000resize_imagest\u0004\u0000\u0000\u0000True(\u0006\u0000\u0000\u0000t\u0001\u0000\u0000\u0000xt\u0005\u0000\u0000\u0000shapet\u0003\u0000\u0000\u0000ktft\n\u0000\u0000\u0000new_heightt\t\u0000\u0000\u0000new_widtht\u0007\u0000\u0000\u0000resized(\u0000\u0000\u0000\u0000(\u0000\u0000\u0000\u0000s8\u0000\u0000\u0000/home/guxi/put/PSPNet-Keras-tensorflow/layers_builder.pyt\u0006\u0000\u0000\u0000Interp\u0011\u0000\u0000\u0000s\n\u0000\u0000\u0000\u0000\u0001\u0010\u0001\f\u0001\u0018\u0001\t\u0001", null, null], "name": "lambda_2", "trainable": true, "function_type": "lambda", "arguments": {"shape": [60, 60]}, "output_shape": null, "output_shape_type": "raw"}, "inbound_nodes": [[["activation_54", 0, 0, {}]]], "name": "lambda_2"}, {"class_name": "Lambda", "config": {"function": ["c\u0002\u0000\u0000\u0000\u0006\u0000\u0000\u0000\u0005\u0000\u0000\u0000C\u0000\u0001\u0000sA\u0000\u0000\u0000d\u0001\u0000d\u0002\u0000l\u0000\u0000m\u0001\u0000}\u0002\u0000\u0001|\u0001\u0000\\\u0002\u0000}\u0003\u0000}\u0004\u0000|\u0002\u0000j\u0002\u0000j\u0003\u0000|\u0000\u0000|\u0003\u0000|\u0004\u0000g\u0002\u0000d\u0003\u0000t\u0004\u0000\u0083\u0002\u0001}\u0005\u0000|\u0005\u0000S(\u0004\u0000\u0000\u0000Ni\u00ff\u00ff\u00ff\u00ff(\u0001\u0000\u0000\u0000t\u0002\u0000\u0000\u0000tft\r\u0000\u0000\u0000align_corners(\u0005\u0000\u0000\u0000t\r\u0000\u0000\u0000keras.backendR\u0000\u0000\u0000\u0000t\u0005\u0000\u0000\u0000imaget\r\u0000\u0000\u0000resize_imagest\u0004\u0000\u0000\u0000True(\u0006\u0000\u0000\u0000t\u0001\u0000\u0000\u0000xt\u0005\u0000\u0000\u0000shapet\u0003\u0000\u0000\u0000ktft\n\u0000\u0000\u0000new_heightt\t\u0000\u0000\u0000new_widtht\u0007\u0000\u0000\u0000resized(\u0000\u0000\u0000\u0000(\u0000\u0000\u0000\u0000s8\u0000\u0000\u0000/home/guxi/put/PSPNet-Keras-tensorflow/layers_builder.pyt\u0006\u0000\u0000\u0000Interp\u0011\u0000\u0000\u0000s\n\u0000\u0000\u0000\u0000\u0001\u0010\u0001\f\u0001\u0018\u0001\t\u0001", null, null], "name": "lambda_1", "trainable": true, "function_type": "lambda", "arguments": {"shape": [60, 60]}, "output_shape": null, "output_shape_type": "raw"}, "inbound_nodes": [[["activation_53", 0, 0, {}]]], "name": "lambda_1"}, {"class_name": "Concatenate", "config": {"trainable": true, "name": "concatenate_1", "axis": -1}, "inbound_nodes": [[["activation_52", 0, 0, {}], ["lambda_4", 0, 0, {}], ["lambda_3", 0, 0, {}], ["lambda_2", 0, 0, {}], ["lambda_1", 0, 0, {}]]], "name": "concatenate_1"}, {"class_name": "Conv2D", "config": {"kernel_constraint": null, "kernel_initializer": {"class_name": "VarianceScaling", "config": {"distribution": "uniform", "scale": 1.0, "seed": null, "mode": "fan_avg"}}, "name": "conv5_4", "bias_regularizer": null, "bias_constraint": null, "activation": "linear", "trainable": true, "data_format": "channels_last", "padding": "same", "strides": [1, 1], "dilation_rate": [1, 1], "kernel_regularizer": null, "filters": 512, "bias_initializer": {"class_name": "Zeros", "config": {}}, "use_bias": false, "activity_regularizer": null, "kernel_size": [3, 3]}, "inbound_nodes": [[["concatenate_1", 0, 0, {}]]], "name": "conv5_4"}, {"class_name": "BatchNormalization", "config": {"beta_constraint": null, "gamma_initializer": {"class_name": "Ones", "config": {}}, "moving_mean_initializer": {"class_name": "Zeros", "config": {}}, "name": "conv5_4_bn", "epsilon": 1e-05, "trainable": true, "moving_variance_initializer": {"class_name": "Ones", "config": {}}, "beta_initializer": {"class_name": "Zeros", "config": {}}, "scale": true, "axis": -1, "gamma_constraint": null, "gamma_regularizer": null, "beta_regularizer": null, "momentum": 0.95, "center": true}, "inbound_nodes": [[["conv5_4", 0, 0, {}]]], "name": "conv5_4_bn"}, {"class_name": "Activation", "config": {"activation": "relu", "trainable": true, "name": "activation_57"}, "inbound_nodes": [[["conv5_4_bn", 0, 0, {}]]], "name": "activation_57"}, {"class_name": "Dropout", "config": {"rate": 0.1, "noise_shape": null, "trainable": true, "seed": null, "name": "dropout_1"}, "inbound_nodes": [[["activation_57", 0, 0, {}]]], "name": "dropout_1"}, {"class_name": "Conv2D", "config": {"kernel_constraint": null, "kernel_initializer": {"class_name": "VarianceScaling", "config": {"distribution": "uniform", "scale": 1.0, "seed": null, "mode": "fan_avg"}}, "name": "conv6", "bias_regularizer": null, "bias_constraint": null, "activation": "linear", "trainable": true, "data_format": "channels_last", "padding": "valid", "strides": [1, 1], "dilation_rate": [1, 1], "kernel_regularizer": null, "filters": 150, "bias_initializer": {"class_name": "Zeros", "config": {}}, "use_bias": true, "activity_regularizer": null, "kernel_size": [1, 1]}, "inbound_nodes": [[["dropout_1", 0, 0, {}]]], "name": "conv6"}, {"class_name": "Lambda", "config": {"function": ["c\u0002\u0000\u0000\u0000\u0006\u0000\u0000\u0000\u0005\u0000\u0000\u0000C\u0000\u0001\u0000sA\u0000\u0000\u0000d\u0001\u0000d\u0002\u0000l\u0000\u0000m\u0001\u0000}\u0002\u0000\u0001|\u0001\u0000\\\u0002\u0000}\u0003\u0000}\u0004\u0000|\u0002\u0000j\u0002\u0000j\u0003\u0000|\u0000\u0000|\u0003\u0000|\u0004\u0000g\u0002\u0000d\u0003\u0000t\u0004\u0000\u0083\u0002\u0001}\u0005\u0000|\u0005\u0000S(\u0004\u0000\u0000\u0000Ni\u00ff\u00ff\u00ff\u00ff(\u0001\u0000\u0000\u0000t\u0002\u0000\u0000\u0000tft\r\u0000\u0000\u0000align_corners(\u0005\u0000\u0000\u0000t\r\u0000\u0000\u0000keras.backendR\u0000\u0000\u0000\u0000t\u0005\u0000\u0000\u0000imaget\r\u0000\u0000\u0000resize_imagest\u0004\u0000\u0000\u0000True(\u0006\u0000\u0000\u0000t\u0001\u0000\u0000\u0000xt\u0005\u0000\u0000\u0000shapet\u0003\u0000\u0000\u0000ktft\n\u0000\u0000\u0000new_heightt\t\u0000\u0000\u0000new_widtht\u0007\u0000\u0000\u0000resized(\u0000\u0000\u0000\u0000(\u0000\u0000\u0000\u0000s8\u0000\u0000\u0000/home/guxi/put/PSPNet-Keras-tensorflow/layers_builder.pyt\u0006\u0000\u0000\u0000Interp\u0011\u0000\u0000\u0000s\n\u0000\u0000\u0000\u0000\u0001\u0010\u0001\f\u0001\u0018\u0001\t\u0001", null, null], "name": "lambda_5", "trainable": true, "function_type": "lambda", "arguments": {"shape": [473, 473]}, "output_shape": null, "output_shape_type": "raw"}, "inbound_nodes": [[["conv6", 0, 0, {}]]], "name": "lambda_5"}, {"class_name": "Activation", "config": {"activation": "softmax", "trainable": true, "name": "activation_58"}, "inbound_nodes": [[["lambda_5", 0, 0, {}]]], "name": "activation_58"}], "input_layers": [["input_1", 0, 0]], "output_layers": [["activation_58", 0, 0]], "name": "model_1"}, "backend": "tensorflow"}